dqn_snake.pt (torch, 74797 bytes, 6 tensors)

net.0.weight f4 [128, 6]
0	0xbf45a39d	-0.7720278
1	0xbef69341	-0.4815922
2	0xbe5660eb	-0.20935409
3	0xc01c18dc	-2.4390173
4	0x3f0204ce	0.5078858
5	0xbf1bc0d6	-0.6084112
6	0xbfa4765d	-1.2848622
7	0xbfa226d5	-1.26681
8	0xbf7d8cad	-0.9904278
9	0xbf3c5f01	-0.73582464
10	0xbf28ed56	-0.65987146
11	0xbec96002	-0.3933106
12	0xbeb3fae8	-0.35152364
13	0xbecfffad	-0.40624753
14	0xbeac73a8	-0.3368199
15	0xc052b46b	-3.2922618
16	0x3e6d12e9	0.23151745
17	0xbf007e26	-0.5019249
18	0xbeb5e591	-0.35526708
19	0xbeddbbde	-0.43307394
20	0xbf223078	-0.6335521
21	0xbe9c4334	-0.30520022
22	0x3ea0f454	0.31436408
23	0xbd9686c1	-0.07349921
24	0xbe955f1b	-0.29174122
25	0xbf0c98f2	-0.54920876
26	0xbf2a30a8	-0.66480494
27	0xc011455b	-2.2698581
28	0x3f1c408a	0.6103598
29	0xbed0842d	-0.40725842
30	0xc023a59d	-2.5569832
31	0xc0443b4d	-3.0661194
32	0xc0684e42	-3.6297765
33	0xbff2661a	-1.8937409
34	0x400fca8c	2.2467375
35	0xbfb1f4dc	-1.390285
36	0xbe958dc7	-0.2920973
37	0xbe4de397	-0.2010635
38	0xbf3d670c	-0.7398536
39	0xc08dd14d	-4.4317994
40	0xbea3ca73	-0.31990394
41	0xbf039f3d	-0.51414853
42	0xbfdbd7ed	-1.717527
43	0xc007ee79	-2.1239302
44	0xc08932b8	-4.2874413
45	0xc01ac03a	-2.4179826
46	0x3df98798	0.121840656
47	0xbf96180d	-1.172609
48	0xc00fe23f	-2.248184
49	0xbfc24d22	-1.5179789
50	0xbfcc0736	-1.5939701
51	0xbfe4027f	-1.7813262
52	0xbfa9135c	-1.3209033
53	0xbfdb4c20	-1.7132607
54	0xc092da78	-4.5891685
55	0xc004e82c	-2.0766706
56	0xc099a4d5	-4.801371
57	0xc032d9d0	-2.7945442
58	0x3e03a4ba	0.12855807
59	0xbf935de7	-1.1513032
60	0xbf9e8638	-1.238471
61	0xbf97d4ae	-1.186178
62	0xbfd2e767	-1.6476868
63	0xbfa6ccf1	-1.3031293
64	0xbf55f5ea	-0.8357836
65	0xbe714f69	-0.23565449
66	0xbf3cd499	-0.737619
67	0xbf3ae6c9	-0.730084
68	0xbec683b2	-0.3877235
69	0xbe7d4abb	-0.24735539
70	0xbe4f6c2c	-0.20256108
71	0xbec4383c	-0.38324153
72	0xbf0c1af5	-0.54728633
73	0xbe9dbba9	-0.30807236
74	0xbec063fe	-0.37576288
75	0xc01ebb9f	-2.4802015
76	0x3e889c0e	0.2668156
77	0xbe73139f	-0.23737954
78	0xc05018dc	-3.2515173
79	0xc0965087	-4.69733
80	0xc08d642a	-4.418477
81	0xc003b124	-2.0576868
82	0xbeab0ce8	-0.33408284
83	0x3eb0b847	0.34515592
84	0xc0534337	-3.3009775
85	0xc0520bb3	-3.281964
86	0xc053e3d9	-3.3107817
87	0xc053555f	-3.3020856
88	0xbe4e1762	-0.20126107
89	0x403d4065	2.9570553
90	0xbf0845dd	-0.532316
91	0xbf17c18b	-0.592797
92	0xbd69fb3b	-0.057124358
93	0xbeb9dde7	-0.3630211
94	0x3d55e417	0.052219477
95	0xbf02a595	-0.5103391
96	0xc0717595	-3.7728016
97	0xc05f4f72	-3.489224
98	0xc0667182	-3.600678
99	0xc0d1e0a9	-6.5586743
100	0x40745171	3.8174708
101	0xc06bdcc6	-3.68535
102	0xbeb08572	-0.3447681
103	0xbf16c7d4	-0.58898664
104	0xbe32b7c4	-0.17452914
105	0xc08e5b2b	-4.448629
106	0x3f05deab	0.5229289
107	0xbf24a4e0	-0.6431408
108	0xbf2bcc82	-0.6710893
109	0xbe993a02	-0.2992707
110	0xbec367bd	-0.38165084
111	0xc01c6850	-2.4438667
112	0x3e841e19	0.25804213
113	0xbe1c2d31	-0.15251614
114	0xc063c6f7	-3.5590189
115	0xc04dbef4	-3.2147799
116	0xc08a8cef	-4.329704
117	0xbeb349e6	-0.35017318
118	0x4032b807	2.7924821
119	0xc00ae2e0	-2.1700974
120	0xc0b3ba68	-5.6165047
121	0xc01a819c	-2.4141607
122	0xc0390115	-2.890691
123	0xc013319f	-2.2999036
124	0x403d09bf	2.9537199
125	0xbfd96927	-1.6985215
126	0xbe97b554	-0.2963053
127	0xbf42fb60	-0.7616482
128	0xbea8f48f	-0.32999083
129	0xbffccc61	-1.9749871
130	0x3e86a2e4	0.2629615
131	0xbeb53952	-0.35395294
132	0xc03eb963	-2.980065
133	0xc040b323	-3.0109336
134	0xc0ba8a6e	-5.829398
135	0xc0b2ebb8	-5.5912743
136	0x40289606	2.6341567
137	0x3c228df9	0.009921544
138	0xc01e42d4	-2.4728289
139	0xc017114d	-2.360431
140	0xbfe973ef	-1.8238505
141	0xbf92b125	-1.146031
142	0xbf58139f	-0.8440494
143	0xbfb925b1	-1.4464628
144	0xc05670f5	-3.3506444
145	0xc06cb3ed	-3.6984818
146	0xc0a91603	-5.283937
147	0xbfdd2377	-1.7276448
148	0x4017792d	2.366771
149	0xc01b621c	-2.4278631
150	0xbeb26e8c	-0.34849966
151	0xbe5947f6	-0.21218857
152	0xbe3bafe4	-0.18328816
153	0xbec916ba	-0.39275151
154	0xbcd304e0	-0.02575916
155	0xbe8a0980	-0.26960373
156	0xc05bc4b4	-3.4338808
157	0xc0856641	-4.168732
158	0xc03c58ca	-2.9429193
159	0xc08a2ecd	-4.318213
160	0x3f341eb7	0.7035937
161	0xbf79f1ac	-0.97634387
162	0xbe855685	-0.26042572
163	0xbef5f5ce	-0.48039097
164	0xbefafc7e	-0.4902076
165	0xbfd507b9	-1.6642982
166	0x3f47ac9d	0.7799776
167	0xbe746bf4	-0.23869306
168	0xc030f5a5	-2.764993
169	0xc063c6b3	-3.5590026
170	0xc06a21a6	-3.6583037
171	0xbffdac0a	-1.9818127
172	0x3f7fe3f3	0.999572
173	0xbf3461a5	-0.70461494
174	0xbfdc544c	-1.7213225
175	0xbfd04a7a	-1.6272728
176	0xbfdd77ab	-1.7302145
177	0xbf923671	-1.1422864
178	0xbfadcfe2	-1.3579066
179	0xbfa92fbf	-1.3217696
180	0xbea7a7ee	-0.32745308
181	0xbeefc298	-0.4682815
182	0xbf7e7f3e	-0.99412906
183	0xbea1129f	-0.3145952
184	0x3ee8026c	0.45314348
185	0xbf007cc2	-0.50190365
186	0xc01faffe	-2.4951167
187	0xc019e881	-2.404816
188	0xbf887cd2	-1.0663092
189	0xbf236603	-0.6382753
190	0xbee24902	-0.44196326
191	0xbf2d36e8	-0.67661905
192	0xbf199b7c	-0.60002875
193	0xbf160889	-0.58606774
194	0xbeefb59f	-0.46818253
195	0xc02ce902	-2.7017217
196	0x3e5e1ec2	0.2169142
197	0xbe7b183d	-0.24520965
198	0xc09cd45e	-4.9009237
199	0xc0b2f621	-5.592545
200	0xbffff736	-1.9997318
201	0xbffb43da	-1.9630082
202	0x403b7a1c	2.929328
203	0xbf8c3a48	-1.0955286
204	0xbf18aee4	-0.5964186
205	0xbebbc136	-0.36670846
206	0xbee7cef2	-0.45275074
207	0xc048194b	-3.1265438
208	0x3e84c5eb	0.2593225
209	0xbdc61920	-0.09672761
210	0xbf16f024	-0.58960176
211	0xbea409ca	-0.32038718
212	0xbe3b61f7	-0.1829909
213	0xc080dfbf	-4.0273128
214	0x3ea8d27e	0.32973093
215	0xbea24189	-0.31690624
216	0xc03a94f3	-2.9153411
217	0xc026d133	-2.6065185
218	0xc0619dc0	-3.5252533
219	0xc043f4fa	-3.0618272
220	0xc02b896f	-2.6802633
221	0xbf859843	-1.0437092
222	0xbe22a95a	-0.15884915
223	0x3faf3cfb	1.3690485
224	0x3ecc1ebb	0.39867195
225	0x407e4299	3.9728148
226	0x40110f1a	2.2665467
227	0xc0ba1762	-5.8153543
228	0xbeb584a0	-0.35452747
229	0xbf299403	-0.6624147
230	0xbf14a993	-0.5807125
231	0xc00f01b8	-2.23448
232	0x3ed3b7e3	0.41351232
233	0xbf18580a	-0.59509337
234	0xbf07a1a2	-0.5298101
235	0xbf4035c1	-0.7508202
236	0xbef8ff9e	-0.4863252
237	0x3cec5e10	0.028853446
238	0x3e8c24e5	0.27371898
239	0xbf3cb39b	-0.73711556
240	0xbee29761	-0.44256118
241	0xbf2a9b7e	-0.6664351
242	0xbeb673cb	-0.35635218
243	0xc0193810	-2.3940468
244	0x3e8cc1a9	0.274915
245	0xbf04af23	-0.5182974
246	0xbf31efd9	-0.69506603
247	0xbf3ca388	-0.7368703
248	0xbe9c9104	-0.30579388
249	0xbff3c686	-1.904496
250	0x3e9ad10e	0.3023762
251	0xbe88774e	-0.26653522
252	0xc0042331	-2.064648
253	0xc00dbed5	-2.2147725
254	0xc0379286	-2.868318
255	0xc02ed57b	-2.7317798

net.0.bias f4 [128]
0	0xbd69b1c0	-0.05705428
1	0xbf5d7f87	-0.86522716
2	0xbf1ebe38	-0.62009
3	0xbe873158	-0.26404834
4	0xbf1a3b85	-0.6024707
5	0xc06aadd8	-3.6668606
6	0xbedb750f	-0.42862746
7	0xc07f732d	-3.9914048
8	0xbfb5fbf3	-1.4217514
9	0xc0a5de66	-5.1833982
10	0xbfef1668	-1.8678713
11	0xbf73de08	-0.9526067
12	0xbf08fdc2	-0.53512204
13	0xc0856b02	-4.1693125
14	0xc050a287	-3.25992
15	0xbed7f7f4	-0.4218136
16	0xc0660ef5	-3.594663
17	0xbf24d9c8	-0.6439481
18	0xbf272b94	-0.6530087
19	0xc069946c	-3.649684
20	0xc027dab5	-2.6227238
21	0xbe2ff469	-0.17183079
22	0xc0b19b22	-5.550187
23	0xbfcc4715	-1.5959193
24	0xc0968614	-4.703867
25	0xbeb968f5	-0.36212888
26	0xc02991bb	-2.6495197
27	0xbf5485ef	-0.83016866
28	0xc03748ce	-2.8638186
29	0xbfbc685c	-1.4719348
30	0xbf4f8e4a	-0.8107649
31	0xbf00c7d8	-0.5030494
32	0xbf4ebeea	-0.8076006
33	0xc0026435	-2.0373662
34	0xbe43ef76	-0.19134316
35	0xbecb12d2	-0.39662796
36	0xc06e6b25	-3.7252896
37	0x3f0111ff	0.50418085
38	0xbe90c0a9	-0.28271988
39	0xbebadc3e	-0.36496156
40	0xbf4fee66	-0.8122314
41	0xbeba0d1f	-0.36338136
42	0xc03b4196	-2.925878
43	0xbf900c70	-1.1253796
44	0xc00c23ad	-2.1896775
45	0xbf52ca36	-0.823398
46	0xbe5a2ff5	-0.21307357
47	0xbf6fe1ed	-0.9370411
48	0xc015b00f	-2.3388708
49	0xc01d4065	-2.4570553
50	0xbe9d07aa	-0.3066991
51	0xbedc3c6f	-0.43014857
52	0xbeaa21e5	-0.33228984
53	0x3f900712	1.1252158
54	0xbffb5535	-1.9635378
55	0xbf1ff81a	-0.6248795
56	0xbf604a72	-0.87613595
57	0xbf3f1158	-0.7463584
58	0xbf6bb3b7	-0.920711
59	0xc08a0bdc	-4.3139477
60	0xbf5a3333	-0.85234374
61	0xbfff8efa	-1.9965508
62	0xc0282aa8	-2.6276035
63	0xbf61c813	-0.88195914
64	0xbfb782b7	-1.4336766
65	0xbeb9e4a2	-0.36307245
66	0xbf6d7fce	-0.9277314
67	0xc0114f0d	-2.2704499
68	0xbeb0a43e	-0.34500307
69	0xbf1df1fe	-0.61697376
70	0xc01f03bf	-2.4846036
71	0xbf565f73	-0.83739394
72	0xbe946841	-0.2898579
73	0xbfc19006	-1.5122077
74	0xc077a4f9	-3.8694441
75	0xbf4339da	-0.7626015
76	0xbf1fa20a	-0.62356627
77	0x3ff41e26	1.90717
78	0xc0779abb	-3.868819
79	0xbf6efc72	-0.9335395
80	0xc0347aca	-2.8199944
81	0x407e346f	3.9719503
82	0xc04f1bc6	-3.2360702
83	0xbf12c635	-0.5733369
84	0xbf0c0a5a	-0.54703295
85	0xbf6fdb3c	-0.936939
86	0xbf01c66c	-0.5069339
87	0xbf96f294	-1.1792779
88	0xbe127b98	-0.1430496
89	0xc02ecfd8	-2.7314358
90	0xbff56698	-1.9171934
91	0xc00cdbb5	-2.2009099
92	0xbf740fbd	-0.95336515
93	0xbe9cddb9	-0.3063791
94	0xbf113ca1	-0.5673314
95	0xc08dcbc0	-4.431122
96	0xbf324d04	-0.69648767
97	0xbf6b1416	-0.91827524
98	0xc0010066	-2.0156493
99	0xc0cb6f48	-6.357334
100	0x3fbba970	1.4661083
101	0xbf397469	-0.7244325
102	0xbfb28165	-1.3945738
103	0xbead16dc	-0.33806503
104	0xbe2a01ec	-0.16602296
105	0xbfef3984	-1.8689427
106	0xc04b64f7	-3.1780374
107	0x3e250ef2	0.16118982
108	0xbfa426e7	-1.2824372
109	0xc02bd434	-2.6848269
110	0xbfbb50e9	-1.4634067
111	0xbf5e16d5	-0.8675359
112	0xc00169cf	-2.022083
113	0xc0540e6e	-3.3133807
114	0xbf884e1e	-1.064884
115	0xbf21ea87	-0.63248485
116	0xbe7b6770	-0.24551177
117	0xbe6d583e	-0.23178193
118	0xc01f709c	-2.4912481
119	0xbee68fd7	-0.45031616
120	0xc04505d1	-3.07848
121	0xc021f871	-2.5307887
122	0xbf386173	-0.72023696
123	0xc035dee5	-2.8417294
124	0xc0748905	-3.820863
125	0xbfede9e7	-1.8587006
126	0xbe90d885	-0.2829019
127	0xbf65396d	-0.8954075

net.2.weight f4 [128, 128]
0	0xbf03203c	-0.5122106
1	0xbc5dfcb8	-0.013549022
2	0xbf1f4f50	-0.62230396
3	0xbd28e49b	-0.04123364
4	0xbf1f240e	-0.6216439
5	0xbd7a9816	-0.061180197
6	0xbf1f00e8	-0.6211076
7	0xbbeed2d0	-0.0072883144
8	0xbd0daf0b	-0.034590762
9	0x3d71052e	0.05884283
10	0x3f88f43a	1.0699532
11	0x3d7f95b2	0.06239862
12	0xbf299dde	-0.6625651
13	0xc0384b2b	-2.879588
14	0x3b760c20	0.0037543848
15	0xbf273fba	-0.65331614
16	0xbf1cb0f5	-0.61207515
17	0xbf19b69e	-0.60044277
18	0xbf22933f	-0.6350593
19	0x3ebcaf51	0.36852506
20	0xbf09ff16	-0.53904855
21	0xbc3b90e0	-0.011448115
22	0x3d2953fa	0.041339852
23	0xbfaa8254	-1.3321023
24	0xbaad8200	-0.0013237596
25	0xbbe1fd90	-0.006896682
26	0x40114753	2.2699783
27	0xbf2a17c8	-0.6644254
28	0xc0342802	-2.814942
29	0x3fe18c1b	1.7620882
30	0x3d3c085a	0.045906402
31	0x4018fcde	2.3904338
32	0xbf05c330	-0.5225096
33	0xbf17ec62	-0.59345067
34	0xbf301638	-0.68783903
35	0xbf06cb76	-0.52654207
36	0xbf2d9b48	-0.67815065
37	0xc0329531	-2.790356
38	0xbf1efd54	-0.621053
39	0xbf28eaa0	-0.6598301
40	0xbb62daa0	-0.0034615174
41	0xbf12eb86	-0.5739063
42	0xbfebda7f	-1.8426055
43	0xbf575cd6	-0.8412603
44	0x401ac755	2.4184163
45	0xbf1790d2	-0.59205353
46	0xbf28de5c	-0.65964293
47	0xbf1cbe4c	-0.6122787
48	0xbf140c82	-0.57831585
49	0x3d2da5ae	0.042394333
50	0xbf144812	-0.5792247
51	0xbf12a30e	-0.5728005
52	0xbf1d74b2	-0.6150619
53	0xbf17f968	-0.5936494
54	0xbf064ed2	-0.5246402
55	0xbf1007ac	-0.56261706
56	0xbf1064cd	-0.5640381
57	0xbf27f791	-0.6561213
58	0xbf23c2ef	-0.6396932
59	0xbda19f37	-0.07891696
60	0x3cbc3224	0.022973128
61	0xbfc24e39	-1.5180122
62	0x3c165448	0.009175368
63	0xbf2c0e2d	-0.6720913
64	0x3c275530	0.010213181
65	0xbd427d41	-0.047482733
66	0xbf299fe5	-0.66259605
67	0xbf24dd1b	-0.6439988
68	0x3d66f912	0.056389876
69	0xbf08f349	-0.53496224
70	0x401ae383	2.4201362
71	0xbf0bdc2d	-0.54632837
72	0xbd095244	-0.03352572
73	0xbd386525	-0.045018334
74	0x403fffd2	2.999989
75	0xbf25ab58	-0.64714575
76	0xbf25b5eb	-0.6473071
77	0xbf098679	-0.53720814
78	0x3d5465e2	0.051854976
79	0xbc9c36b0	-0.019069046
80	0x3d3399f6	0.043848
81	0xbf202c5b	-0.6256768
82	0xbf358d20	-0.70918465
83	0x3d94ffaf	0.0727533
84	0xbf12f602	-0.5740663
85	0xbf24fb1a	-0.6444565
86	0xbf2c3ed9	-0.672834
87	0xbf1ad2a6	-0.60477674
88	0x3d27ec9e	0.04099714
89	0x3d816e8f	0.063199155
90	0xbf20862e	-0.6270474
91	0xbf301abe	-0.68790805
92	0xbf0c9a96	-0.5492338
93	0xbf1cae9a	-0.6120392
94	0x3c8eb568	0.017420486
95	0xbae9bdc0	-0.0017833039
96	0xbf0ed184	-0.55788445
97	0xbf180a45	-0.5939067
98	0x401bd115	2.4346364
99	0xbd688867	-0.05677071
100	0xbf15612a	-0.58351386
101	0xbf2f0604	-0.68368554
102	0x3d4d691a	0.05014906
103	0xbf0978d1	-0.53699976
104	0x3b56f9a0	0.0032802597
105	0x3c01df48	0.00792677
106	0xbd0db888	-0.03459981
107	0xbf2e3183	-0.680443
108	0xbda94bed	-0.08266435
109	0x3ca3e1f4	0.020005204
110	0xbd4996ce	-0.049216084
111	0xbf26e3b8	-0.6519122
112	0xbf2eafc9	-0.68236977
113	0xbf0b3150	-0.5437212
114	0xbf03bc1f	-0.51458925
115	0xbd7f71c6	-0.062364362
116	0xbf28be52	-0.65915406
117	0xc00ff41d	-2.2492745
118	0xbd5c734f	-0.053820904
119	0xc03ff9d8	-2.9996243
120	0x3d2d49da	0.04230676
121	0x3fa283bd	1.2696453
122	0x3d223a82	0.03960658
123	0xbf2e13c0	-0.67998886
124	0xbf0911c4	-0.53542733
125	0xbfbff420	-1.4996376
126	0xbf2f4afa	-0.6847378
127	0xbf1f8d4e	-0.6232499
128	0xbf05abf6	-0.52215517
129	0x3d4b7582	0.04967261
130	0xbf2cc4bd	-0.674877
131	0xbf0451fe	-0.5168761
132	0xbf0f4e98	-0.559793
133	0xc01179c1	-2.2730563
134	0xbf14cf6f	-0.5812902
135	0x3d0ed588	0.034871608
136	0xbfb364bb	-1.4015115
137	0x3d5f66de	0.05454146
138	0xbf838de0	-1.0277672
139	0xbf250ad6	-0.6446966
140	0xbf1d55ac	-0.6145885
141	0x403fd86b	2.997584
142	0xbd173f28	-0.036925465
143	0xbf0c1a03	-0.5472719
144	0xbf0b5917	-0.54432815
145	0xbf123316	-0.571092
146	0xbf23811c	-0.6386888
147	0xbf0d93d7	-0.5530371
148	0xbf0fb8ac	-0.5614116
149	0xbf1610f2	-0.58619606
150	0xbc8b1064	-0.01697559
151	0xbfd642f5	-1.6739184
152	0xbf0e8a86	-0.5568012
153	0xbc93e8cc	-0.018055342
154	0x3d74633e	0.059664957
155	0xbf0b8f52	-0.54515564
156	0xbc5b5170	-0.013386115
157	0xbd49086d	-0.0490803
158	0xbf1e8913	-0.6192791
159	0x3c20b080	0.009807706
160	0xbf13c431	-0.5772124
161	0xbf136edf	-0.5759105
162	0xbf1c7673	-0.6111824
163	0xbf16eccb	-0.5895507
164	0xbf11cd92	-0.569543
165	0xbf091640	-0.53549576
166	0xbf0ef6e2	-0.55845463
167	0xbf126aed	-0.57194406
168	0xbf1c8a3e	-0.6114844
169	0xbf150db0	-0.5822401
170	0xbd09e8b7	-0.0336692
171	0xbd8aa3df	-0.06769537
172	0xbd3500df	-0.044190284
173	0xbf19137c	-0.59795356
174	0xbf3014f7	-0.6878199
175	0xbf2f0e8e	-0.68381584
176	0xbf2d794f	-0.6776323
177	0xbd5921d7	-0.053010788
178	0xbf2a9f60	-0.66649437
179	0xbf225cfc	-0.6342313
180	0xbf277eaa	-0.6542765
181	0xbf2a1e30	-0.6645231
182	0xbf0af28e	-0.5427636
183	0xbf1615f8	-0.5862727
184	0xbf0d6186	-0.55226934
185	0xbf244124	-0.64161897
186	0xbf27fc1b	-0.6561906
187	0xbcfbda5e	-0.030743774
188	0xbf046403	-0.51715106
189	0xbfc695f4	-1.5514512
190	0x3cb8d7b4	0.022563793
191	0xbf1f2c04	-0.6217654
192	0x3f845a38	1.0340033
193	0x3d917de7	0.07104092
194	0xbf0ffa0a	-0.56240904
195	0xbf19ffd6	-0.60156
196	0xbf24c683	-0.64365405
197	0xbf1a4a56	-0.6026968
198	0x4018469b	2.3793094
199	0xbf18af8c	-0.59642863
200	0xbf24fc55	-0.6444753
201	0x3cdf6f7c	0.02727484
202	0xbd429ce9	-0.047512922
203	0xbf0b2424	-0.5435202
204	0xbf170cd6	-0.5900396
205	0xbf1a88e6	-0.6036514
206	0xbf1d0477	-0.6133494
207	0x3f8ff5ff	1.1246947
208	0xbdb37ff1	-0.08764637
209	0xbf0a9167	-0.54128116
210	0x3c1ef1c8	0.0097012
211	0xbf0fed8b	-0.56221837
212	0xbf09a71d	-0.5377062
213	0xbf1f7955	-0.62294513
214	0xbf293a1d	-0.661043
215	0xbf2bc806	-0.67102087
216	0xbf2ee55c	-0.68318725
217	0x3d9be499	0.07611961
218	0xbf0bd0db	-0.54615563
219	0xbf240b89	-0.640801
220	0xbf0e34e4	-0.55549455
221	0xbf2d0afd	-0.6759489
222	0xbf1cca09	-0.6124578
223	0xbf0d98ad	-0.5531109
224	0xbf23e8f4	-0.64027333
225	0xbf2c2000	-0.6723633
226	0xbcb60c68	-0.022222713
227	0xbf090ddc	-0.5353677
228	0xbf049980	-0.5179672
229	0xbf0c494e	-0.54799354
230	0xbf29a13a	-0.6626164
231	0xbf11c74d	-0.56944734
232	0x3cbcacbc	0.023031585
233	0x3bbb5810	0.005717285
234	0x3d9cd1cd	0.07657204
235	0xbf1f47c6	-0.6221889
236	0x3fcb11db	1.5864824
237	0xbc967e00	-0.018370628
238	0xbd1ff9ab	-0.03905646
239	0xbf0c1fc6	-0.5473598
240	0xbf1ae5de	-0.60507
241	0xbf1fb554	-0.6238606
242	0xbf0ef4f6	-0.5584253
243	0x3f8ffbd9	1.1248733
244	0xbf12d7a5	-0.573603
245	0xbf1a3b38	-0.6024661
246	0xbf28a7e1	-0.6588116
247	0xbf0fc946	-0.56166494
248	0x3c5227e8	0.012826897
249	0xbd323c40	-0.04351449
250	0xbf100747	-0.56261104
251	0xbf0ef7d0	-0.5584688
252	0xbf035585	-0.5130237
253	0xbcd54d16	-0.026037734
254	0xbf2d00f3	-0.67579573
255	0xbf24a712	-0.6431743

net.2.bias f4 [128]
0	0xc093d113	-4.6192718
1	0xbf92a215	-1.1455714
2	0xbfb9e97f	-1.4524382
3	0xbfbf87ad	-1.496328
4	0xc01c4011	-2.4414103
5	0xc029e8be	-2.6548305
6	0xbfad2039	-1.3525459
7	0xbfbc4820	-1.4709511
8	0xc04117a9	-3.017069
9	0xc081521e	-4.041274
10	0xbf661065	-0.89868766
11	0xbffdf9b5	-1.984183
12	0xc008d0c2	-2.1377416
13	0xc02a366a	-2.6595712
14	0xbe65ef7b	-0.22454636
15	0xc00d07dd	-2.203605
16	0xc0566eb5	-3.350507
17	0xc07301b8	-3.79698
18	0xc075d789	-3.8412802
19	0xc0158aa3	-2.3365867
20	0xc0113d22	-2.2693563
21	0xc08f7058	-4.482464
22	0xbedac6a5	-0.4272968
23	0xbfb0cf7e	-1.3813322
24	0xc002e948	-2.0454884
25	0xc093f228	-4.62331
26	0xc0662e79	-3.5965865
27	0xc02ca456	-2.6975303
28	0xc08a34cb	-4.3189445
29	0xc095a22f	-4.676048
30	0xbf2f4d55	-0.68477374
31	0xbff2a757	-1.8957318
32	0xbf1a5703	-0.6028902
33	0xc0235f2f	-2.5526845
34	0xbf7b7aab	-0.9823405
35	0xbfd1c5aa	-1.6388447
36	0xc0207d65	-2.5076535
37	0xbf713444	-0.94220376
38	0xc01194f7	-2.274717
39	0xc053ebd5	-3.311269
40	0xc018ea65	-2.3893063
41	0xc09d081a	-4.907239
42	0xc09476ba	-4.639493
43	0xc0929765	-4.580981
44	0xc01c2278	-2.4396038
45	0xbeb3d228	-0.35121274
46	0xc064aa83	-3.5729072
47	0xbfac3499	-1.3453552
48	0xc017306e	-2.362331
49	0xc07bdc3e	-3.9353175
50	0xbfc6a729	-1.5519763
51	0xc07dd3d7	-3.9660547
52	0xbf8f80b7	-1.1211156
53	0xc0b715c5	-5.7214074
54	0xc090a791	-4.520455
55	0xbffcc032	-1.9746153
56	0xc018b384	-2.3859568
57	0xc09c5c54	-4.8862705
58	0xc0398dab	-2.8992717
59	0xc0a75c1e	-5.229995
60	0xbfbf0342	-1.4922869
61	0xc051c842	-3.2778478
62	0xc0a275bf	-5.0768733
63	0xc0706599	-3.756201
64	0xc08d9ccd	-4.4253907
65	0xc05e92a2	-3.4776998
66	0xc0a4a93d	-5.145659
67	0xbf46c7d0	-0.7764864
68	0xbfe9002e	-1.820318
69	0xbfe5ec68	-1.796277
70	0xc0723750	-3.784626
71	0xc0af5512	-5.4791346
72	0xbfff828a	-1.9961712
73	0xbfb98635	-1.4494082
74	0xbf8f4e48	-1.1195765
75	0xbfbbb708	-1.4665232
76	0xc0834415	-4.102061
77	0xc029c1e3	-2.652459
78	0xc00aa482	-2.1662908
79	0xc025129b	-2.5792606
80	0xc089084b	-4.2822623
81	0xbf8e4161	-1.1113702
82	0xc0012c09	-2.0183127
83	0xc02a1c27	-2.6579683
84	0xc057846c	-3.3674574
85	0xc0a86960	-5.262863
86	0xc0282863	-2.627465
87	0xc0432e89	-3.0497153
88	0xbfe60154	-1.7969155
89	0xbf375c71	-0.7162543
90	0xc04c7b30	-3.1950188
91	0xc0390b36	-2.8913093
92	0xc0213b1e	-2.5192332
93	0xc08525f9	-4.1608853
94	0xc00f9e53	-2.2440383
95	0xc0a7b414	-5.240732
96	0xc0a00c16	-5.0014753
97	0xc02b0cf1	-2.6726649
98	0xc08e7f9c	-4.4530773
99	0xc0a3b236	-5.1155043
100	0xc0296e0a	-2.6473413
101	0xbf8b90b3	-1.0903534
102	0xc0233913	-2.5503585
103	0xc0b80699	-5.7508054
104	0xc0971fed	-4.722647
105	0xbfcc15da	-1.5944169
106	0xc01c00ad	-2.4375412
107	0xbfd3c643	-1.654488
108	0xc0195c05	-2.3962414
109	0xbfff7951	-1.9958898
110	0xc0002736	-2.0023932
111	0xc02af98d	-2.6714814
112	0xbffc956c	-1.97331
113	0xc01f1a26	-2.485971
114	0xc066f9f9	-3.6090071
115	0xbf2952a1	-0.66141707
116	0xc0ec1a0b	-7.378179
117	0xc0615e1f	-3.5213697
118	0xbfdfc21f	-1.7481116
119	0xc070be3b	-3.7616107
120	0xbfdbaca3	-1.716206
121	0xc0351ff1	-2.8300745
122	0xc0a464bd	-5.137297
123	0xbffa86be	-1.957237
124	0xc05fc54e	-3.4964175
125	0xbedb1a5a	-0.42793542
126	0xc07b2222	-3.9239583
127	0xc09d8d43	-4.923494

net.4.weight f4 [4, 128]
0	0xc009acdd	-2.1511757
1	0xbfca3026	-1.5795944
2	0x3eeac7df	0.45855615
3	0x3ee019d3	0.43769702
4	0x3edea4cf	0.43485114
5	0x403d22bd	2.9552453
6	0x403c9506	2.9465957
7	0x3ec67ee2	0.3876868
8	0xbf4233e1	-0.7586041
9	0xbf28c3b0	-0.65923595
10	0x3f234984	0.6378405
11	0x3eeb7aac	0.4599203
12	0x3ef5e0a5	0.48022953
13	0x3f64c65d	0.8936518
14	0xc0a62e0d	-5.1931214
15	0x4008cec5	2.1376202
16	0xbfdc9674	-1.7233415
17	0xbf2ccb59	-0.67497784
18	0xbfb307da	-1.3986771
19	0x3ea77285	0.3270456
20	0x3ebfa681	0.3743172
21	0xc00433ae	-2.0656543
22	0x3f01132b	0.50419873
23	0x3ec97d62	0.39353472
24	0xbf6327e5	-0.8873275
25	0x3ef0930d	0.4698719
26	0xbfa193d9	-1.2623245
27	0x3ef664b8	0.48123717
28	0xbfcfccd3	-1.6234382
29	0xbf9de031	-1.2334043
30	0xbf36f2e4	-0.7146437
31	0x3ef81109	0.48450497
32	0x3e97c76e	0.2964434
33	0xbf306059	-0.68897015
34	0x3ef561b3	0.479261
35	0x3ef8f943	0.48627672
36	0xc063546b	-3.5520275
37	0x3f7b3e73	0.98142165
38	0xc01511b5	-2.3292058
39	0x3f809a4b	1.0047086
40	0x3f01a9d3	0.50649756
41	0x3f89e357	1.0772504
42	0x3e242f2c	0.1603362
43	0xbf6abb64	-0.91692185
44	0xbcb93149	-0.022606509
45	0x3f54785c	0.82996154
46	0xbfbda952	-1.4817297
47	0x3edd178c	0.43182027
48	0xbf391069	-0.72290665
49	0xbfef024f	-1.867258
50	0xbf3d3086	-0.73902166
51	0xbf5e3614	-0.86801267
52	0xbea4f955	-0.32221475
53	0xbff6a7aa	-1.9269917
54	0x3eb53bf7	0.35397312
55	0xc015430b	-2.332217
56	0x3eecc44b	0.4624351
57	0x3dc78421	0.097419985
58	0xbfdb1689	-1.7116252
59	0xbf929d5b	-1.1454271
60	0x3eca7965	0.39545742
61	0x3f7685a2	0.9629766
62	0x3fa31ce7	1.2743195
63	0xbf930c51	-1.1488134
64	0xbf02dcfc	-0.51118445
65	0x3d1a0578	0.03760287
66	0xbfa32d2d	-1.2748162
67	0x3ec8e180	0.39234543
68	0x3f1da99f	0.61586946
69	0x3eea2874	0.45733988
70	0xbcd58da7	-0.026068522
71	0x3f6d630b	0.9272925
72	0x3fde43bc	1.7364421
73	0x3fb0891b	1.3791841
74	0xbfc4af56	-1.5366008
75	0xbe2d6c61	-0.16935875
76	0xbf38ffd1	-0.72265345
77	0xc0163283	-2.346833
78	0x3e851916	0.25995702
79	0x3fadd856	1.3581645
80	0x3f02e8bb	0.5113637
81	0x3ee7b613	0.452561
82	0x3f000ded	0.5002125
83	0xbf320306	-0.69535863
84	0xbfed4a5a	-1.8538315
85	0xbf8c607c	-1.0966945
86	0x3ede2159	0.43384817
87	0x4045fa4d	3.0934021
88	0x3f05793d	0.5213812
89	0xc094c637	-4.649196
90	0xbf16ef6a	-0.58959067
91	0x3dc63945	0.09678892
92	0x3ec11775	0.3771321
93	0xbfeec595	-1.8654047
94	0xbe8d6629	-0.27617005
95	0xc0335851	-2.8022654
96	0x3fa08e62	1.2543452
97	0x3efd9efe	0.49535364
98	0xbf541910	-0.8285074
99	0x3df64f09	0.120267935
100	0x3eedf786	0.46477908
101	0x3eca28f8	0.39484382
102	0x3f1b54b9	0.6067615
103	0xbc7e3aa7	-0.0155169135
104	0xc0128ed7	-2.2899683
105	0x3ebfd02b	0.37463507
106	0x3ee41b97	0.445523
107	0x3daa6cbb	0.0832152
108	0xbf827c10	-1.0194111
109	0xc03a875e	-2.9145122
110	0x404c192d	3.1890366
111	0xbfb21754	-1.3913369
112	0x3ef71054	0.48254645
113	0xc0871fb4	-4.22262
114	0x3fcf58c4	1.6198964
115	0xc0449566	-3.0716186
116	0xbf521840	-0.8206825
117	0x40104538	2.2542248
118	0x3ee50c75	0.44736066
119	0x3e9af729	0.30266693
120	0x3ed71523	0.42008314
121	0xc0589728	-3.3842258
122	0xc00851bb	-2.1299884
123	0x3f9fa282	1.2471468
124	0xc050da01	-3.263306
125	0x3f050445	0.5195964
126	0xbec7cfb6	-0.39025658
127	0xbfb6501f	-1.4243201
128	0x3f38bc55	0.7216237
129	0x3f2f1c8e	0.68402946
130	0xbed16b8b	-0.4090236
131	0xbf033dcf	-0.5126619
132	0xbec9ff39	-0.39452532
133	0xc03d2f4e	-2.9560122
134	0xbe8b709b	-0.2723435
135	0xbf048b50	-0.51775074
136	0x3e5efe6e	0.21776745
137	0xbf8ca004	-1.0986333
138	0xbebe663e	-0.3718738
139	0xbee2057a	-0.44144803
140	0xbf02f077	-0.5114817
141	0xbf1e7b10	-0.6190653
142	0x3f89a0c8	1.0752192
143	0xbfbbc8e3	-1.4670681
144	0x3db6a984	0.08919051
145	0xbf3647d9	-0.7120338
146	0xbfa01ba4	-1.2508435
147	0x3e2a8bce	0.16654894
148	0xbf04e93a	-0.51918375
149	0xbf3ff35c	-0.7498071
150	0xbeebe30e	-0.46071666
151	0xbebd3f1d	-0.36962214
152	0xbfac8478	-1.3477926
153	0xbf8acd8d	-1.0843979
154	0xbf58654d	-0.8452957
155	0xbed5d6d7	-0.41765472
156	0xbfb3a873	-1.4035782
157	0x3fc8a7b3	1.5676178
158	0x3f287895	0.65808994
159	0xbec4caa1	-0.38435844
160	0xbee3926a	-0.44447643
161	0x3f79b2fe	0.97538745
162	0xbecdd7b6	-0.40203637
163	0xbf14b1fc	-0.5808408
164	0x3f3044a6	0.6885475
165	0x3e358553	0.1772664
166	0x3fb5e9d8	1.4211988
167	0x3e87bc96	0.26511067
168	0xbf0214f7	-0.5081324
169	0xc0050890	-2.0786476
170	0xbf40b4b7	-0.7527575
171	0xbebe3105	-0.37146774
172	0xbf2d3b6a	-0.67668784
173	0xbf84d9ef	-1.0379008
174	0xbf736b10	-0.9508524
175	0xbecbcb4b	-0.39803538
176	0x3cb856f5	0.022502402
177	0xbfd8cf8c	-1.6938338
178	0x3e0c6a83	0.13712506
179	0x3fcf697d	1.6204067
180	0x3df1606f	0.117859714
181	0xbeba99ae	-0.36445373
182	0xbea04c31	-0.3130813
183	0x3e49d12d	0.197087
184	0xbecbe74f	-0.39824912
185	0x3f6afc8c	0.91791606
186	0xbec575eb	-0.38566527
187	0xbd79571a	-0.060874082
188	0xbedd7a1d	-0.43257228
189	0xbf854685	-1.0412146
190	0xbf8b2722	-1.0871317
191	0x402192db	2.5245883
192	0x400a4729	2.1605933
193	0x3eac8a83	0.33699426
194	0xbf10a41a	-0.565004
195	0xbebfe17a	-0.37476712
196	0xbed98dd8	-0.4249103
197	0xbec75dea	-0.38938838
198	0xbfa13cca	-1.2596676
199	0x3eb4923b	0.35267815
200	0xbff914d3	-1.945948
201	0x3fafcf75	1.3735186
202	0xbcc04f58	-0.023475334
203	0xbfa70142	-1.3047259
204	0xbd51aa70	-0.051187932
205	0x4007dd18	2.1228695
206	0x3e8ab790	0.27093172
207	0xbfe1b770	-1.7634106
208	0xbf77c881	-0.9679032
209	0xbf015503	-0.5052034
210	0xbed9a335	-0.4250733
211	0x3e31cd46	0.17363462
212	0x402fb9c5	2.7457135
213	0x3f37a286	0.71732366
214	0xbee8421c	-0.45362937
215	0xbfcdecac	-1.6087852
216	0xbec80413	-0.39065608
217	0x3fbc3855	1.4704691
218	0xbe0f073e	-0.13967606
219	0x3e8ff894	0.28119338
220	0xbef5e499	-0.4802597
221	0x4036cb11	2.8561442
222	0xbecb3928	-0.39692044
223	0xbf89b30a	-1.0757763
224	0xbf5e7768	-0.8690095
225	0xbf0884e6	-0.53327787
226	0x3f89efee	1.0776346
227	0x3feb5702	1.8385928
228	0xbecf907c	-0.4053992
229	0xbeca4816	-0.39508122
230	0xbfe719ce	-1.805475
231	0xbf8dee47	-1.1088341
232	0xbf926d0a	-1.1439526
233	0xbec715a7	-0.38883707
234	0xbeb9ef36	-0.36315316
235	0x3f1b9606	0.6077579
236	0xbf89ba73	-1.0760025
237	0x3fe38bcd	1.7777039
238	0xc030c8ea	-2.7622628
239	0x3fb16d6f	1.3861521
240	0xbece4ed4	-0.40294516
241	0xbdf024e2	-0.11725785
242	0xbfd1ec7b	-1.6400293
243	0xbf570d76	-0.84004915
244	0x40139adb	2.3063266
245	0x3f5af504	0.85530114
246	0xbf049616	-0.5179151
247	0xbec54b50	-0.3853402
248	0xbedf304b	-0.43591532
249	0x40543957	3.3159997
250	0x3f038bea	0.51385367
251	0xc030974b	-2.7592342
252	0x40704f8a	3.7548547
253	0xbecac466	-0.39602965
254	0xbf7a52a5	-0.97782356
255	0xc083145b	-4.096235

net.4.bias f4 [4]
0	0x3e2cb8f4	0.16867429
1	0x3dfd923e	0.12381409
2	0x3e22359a	0.1584076
3	0x3e06864f	0.13137172
