dqn_snake.pt (torch, 81965 bytes, 6 tensors)

net.0.weight f4 [128, 20]
000000 8d ff d5 be 8c f8 3c be 4b f3 ae 3e 19 8a 5e be
       -0.41796532 -0.18454188 0.34169993 -0.21732368
000010 a0 d7 81 bf 7f b6 35 be 8b 95 0d be 9c 52 e7 be
       -1.0143929 -0.17745398 -0.13826577 -0.45180213
000020 a9 8c 38 bd b7 b6 cd 3d 7a 10 25 3f e0 68 64 3e
       -0.04505602 0.10044616 0.64478266 0.22305632
000030 d4 d8 e2 3e c6 0c 25 bf 9e 22 f9 bc 48 e0 c5 be
       0.44306052 -0.64472616 -0.030412015 -0.38647676
000040 dc 87 d3 3d 0e cb 85 bf 0d 09 12 3d c0 01 2b 3f
       0.103286475 -1.0452592 0.035653163 0.66799545
000050 0a 7f a6 be 15 49 07 bf 19 e4 fb bb ed e3 0b 3f
       -0.32518798 -0.5284589 -0.0076871035 0.5464466
000060 94 7d 82 3e 4d 64 b9 be a2 f4 74 bd aa 86 98 be
       0.25486434 -0.36209336 -0.059803613 -0.2979024
000070 3e 9c e1 be 85 f6 5c be 2b d7 f6 be fa 91 d3 bb
       -0.44064516 -0.21578415 -0.48211035 -0.0064566107
000080 4b 26 e1 3e 2f 39 58 be 72 bd 99 3e f1 44 eb bc
       0.43974528 -0.21115564 0.30027348 -0.028719397
000090 94 2a bd be ff 80 80 be e0 a9 6f 3e aa 85 17 be
       -0.36946547 -0.25098416 0.23404646 -0.14797083
0000a0 03 b2 f9 3e 71 69 ed 3e 96 1c 56 bf b8 f2 33 bf
       0.48768625 0.46369508 -0.8363737 -0.70292234
0000b0 2b 80 16 be 6b 5f 87 bf 14 e2 0a 3e ab ce 05 bb
       -0.1469733 -1.0575994 0.13562804 -0.0020417373
0000c0 56 fd dd be 5c 7f 3b bf 34 20 29 bf 9a 4f 25 3e
       -0.43357342 -0.7324121 -0.66064763 0.16143647
0000d0 70 4c 8a 3e 6f f0 42 3d 17 69 44 be 96 56 5c bf
       0.27011442 0.047592577 -0.19180714 -0.8606962
0000e0 3d fb 86 be 5c 5b 2f bf f4 c6 63 3e 57 f5 1e 3f
       -0.26363555 -0.6849878 0.22243863 0.6209311
0000f0 22 a2 85 3d f5 94 8a be fb 60 ce 3e 8c e3 67 3c
       0.06525065 -0.2706677 0.40308365 0.0141533725
000100 49 76 82 3d d7 40 94 bf 71 f6 16 be ca 35 c0 3e
       0.06370217 -1.1582288 -0.14742447 0.37541038
000110 1e 2e 73 3e ea 5b 81 bf a7 b6 9b bf 6f c5 80 be
       0.23748061 -1.0106175 -1.2165116 -0.2515063
000120 36 fd 98 bf 47 9a 06 3e d5 76 27 be 7d 07 26 be
       -1.1952274 0.1314479 -0.16353925 -0.16213794
000130 30 f8 99 bf 7a 9b d7 3e e2 ea bd 3d 5d 65 95 be
       -1.2028866 0.42110807 0.09273316 -0.29178897
000140 e2 13 87 bb e9 29 bb be 7d b1 14 be c3 f4 0b 3f
       -0.0041222433 -0.36555412 -0.14520831 0.5467035
000150 e4 7f e3 3e 0a 83 2f bf 62 fa bd bd 8b 1d 8d bd
       0.4443351 -0.68559325 -0.09276272 -0.068904005
000160 16 0c 5a be 9e d0 a1 3e f5 b1 69 3e ef a0 32 be
       -0.21293673 0.31604475 0.22821791 -0.17444204
000170 a4 4a d1 3e 57 ab 36 bf 9c 8a 18 3f e1 f7 73 3e
       0.4087726 -0.71355194 0.595865 0.23825027
000180 02 45 c9 bc 2d e4 5f bd ad 62 95 be b0 91 6f be
       -0.024569038 -0.054660965 -0.29176846 -0.23395419
000190 7c ad e2 be 0c 37 81 3d 79 2b 4c bf 17 f3 e3 be
       -0.44272983 0.063093275 -0.79753834 -0.445214
0001a0 3c 7f cd be 6d 20 2b be 29 07 7c 3e 68 18 5a bd
       -0.40136135 -0.16711588 0.24612106 -0.053245932
0001b0 f9 b0 f2 3e 8c 4d be bd 90 e2 0e bf 8a 0b 90 be
       0.47400644 -0.09292135 -0.55814457 -0.28133804
0001c0 c7 3d 23 3c b3 83 01 be 2b be 48 be 55 5c 20 bf
       0.009963459 -0.12647896 -0.19603793 -0.6264089
0001d0 d8 1e ce bd 97 c1 a6 3c bb 20 7d bb fd 96 99 3e
       -0.10064477 0.020355983 -0.0038624245 0.29998007
0001e0 05 3d e1 bd ce 5b b8 bd 09 d1 d3 3e 34 a4 93 3e
       -0.10997967 -0.09001885 0.4137042 0.28836215
0001f0 d3 83 23 3f ec 72 07 bf 49 44 86 bb 71 f8 8a 3e
       0.6387302 -0.5290973 -0.0040974957 0.2714267
000200 49 e0 fd bd 9a 5f 2a 3f 37 ff 91 3e 65 58 7b 3e
       -0.123962946 0.66552126 0.28515026 0.24545439
000210 00 41 98 be 78 56 00 bf ed be 81 3e e1 19 32 3e
       -0.2973709 -0.5013194 0.25340977 0.17392685
000220 57 07 6b bf 98 62 49 3e 86 ac 57 3e 85 06 af be
       -0.91808075 0.19666517 0.21061906 -0.34184662
000230 a9 7a e9 be bc b8 db 3e 75 7e 79 3e 4a 33 46 3f
       -0.45601395 0.4291438 0.24364646 0.7742201
000240 fb 89 38 3e db 0c 0a bf 38 ab 38 3e ec b2 10 3f
       0.18021385 -0.53925866 0.18034065 0.56523013
000250 75 b1 a5 3e 42 94 a4 3d ef bd b6 3e 05 6e 8a 3e
       0.3236195 0.080360904 0.35691783 0.27037063
000260 2b b5 19 3e f2 a8 be be 2a f7 4f bf ae bd b4 bd
       0.15010516 -0.3723827 -0.8123652 -0.08825241
000270 df aa 80 3e 63 65 cf be da 66 d2 3e 1e 43 ab be
       0.25130364 -0.4050704 0.41094095 -0.33449644
000280 70 c6 21 bf c0 a7 f4 bd 35 68 12 3f b5 d6 eb 3e
       -0.63193417 -0.11946058 0.5719026 0.46062246
000290 84 d7 95 3d 6b ad 26 bf e0 54 ee 3d 54 7f f7 bc
       0.07316497 -0.65108365 0.11637282 -0.030212082
0002a0 51 f2 0d bf c7 bc 06 3e 04 28 42 bd 48 cd 2b bf
       -0.5544787 0.1315795 -0.047401443 -0.6711011
0002b0 f4 1d 30 be cb c4 c4 bf 84 03 9d be df 81 c7 3e
       -0.17198926 -1.5372556 -0.30666745 0.3896627
0002c0 fc f9 06 bf cd 05 d0 3e 56 9b 64 bf be 56 35 3f
       -0.52725196 0.40629426 -0.89299524 0.70835483
0002d0 d5 87 fc bd 7c 64 69 be 78 f5 8a 3d 31 4c 6a bf
       -0.123305954 -0.22792238 0.06785101 -0.9152251
0002e0 00 d1 32 bf b5 6c 21 3e fc fd 10 bd 87 c5 5f 3e
       -0.6985016 0.15764125 -0.03539847 0.21852694
0002f0 ba cb 54 3e 78 c9 a8 be 9e b2 01 3f ad 9a b9 3e
       0.2078084 -0.32966208 0.50663173 0.3625082
000300 f8 0b 6f be 59 ad 04 bc 77 22 83 be 01 58 6a bf
       -0.2334441 -0.00809797 -0.25612232 -0.91540533
000310 d4 a9 65 be 90 a9 94 3e 1d 78 10 be 6a 5a 06 3f
       -0.22428066 0.29035616 -0.1410832 0.5248171
000320 42 00 9e be 85 44 70 be b0 2d 29 bf 8f 87 52 3e
       -0.30859572 -0.23463638 -0.6608534 0.20559524
000330 e1 cd 0a 3f e5 9c 95 3c fa ae 2d 3e 37 df d3 3e
       0.54220396 0.01826329 0.1696128 0.41381237
000340 b0 60 e9 3d c5 6d 11 bf d3 51 d7 be 31 4a f1 3e
       0.11395395 -0.5680812 -0.42054614 0.47126916
000350 0f c7 ef bb b3 c3 60 3e 35 2e 36 bf 5b 55 93 bf
       -0.007317431 0.21949653 -0.71164256 -1.1510423
000360 6a 2b 44 be d8 55 6b bd 6c a0 a6 bd 48 b0 3b 3f
       -0.19157186 -0.057454914 -0.08136067 0.7331586
000370 4f 5e 6d bf 39 67 53 be 7c 1e cc 3c 7b f3 e8 3e
       -0.9272203 -0.20644845 0.02491688 0.4549826
000380 9f b7 fd be 81 06 16 3d 17 6c ca be 76 23 05 3f
       -0.49554154 0.036627296 -0.3953559 0.52007234
000390 bb 84 1f be 91 73 5a 3e 10 50 7a 3e 09 29 8b be
       -0.15577976 0.21333148 0.24444604 -0.27179745
0003a0 0b 13 8d be 86 84 10 be 58 dc 0c bf 75 17 67 3e
       -0.2755359 -0.14113054 -0.5502372 0.22567542
0003b0 cc 90 03 bd 3d 6c a2 be 00 e9 46 bc 76 e7 34 3e
       -0.03212051 -0.31723204 -0.0121405125 0.1766642
0003c0 c8 d8 c4 be 8f 84 a4 3e ca 50 0c 3e 5d 4d 1a be
       -0.3844664 0.32132384 0.13702694 -0.15068574
0003d0 b5 60 f9 3d 8e 8c e2 3c ca 01 ea bd 1e 98 ab 3e
       0.121766485 0.027654912 -0.114261225 0.33514494
0003e0 0f 1a 28 be 0f 2d b6 be 44 e4 bb bb 38 00 d1 3e
       -0.1641619 -0.35581252 -0.0057339985 0.4082048
0003f0 72 81 e9 3e 00 e6 ec bd 04 32 21 bf 05 16 1e be
       0.4560657 -0.115673065 -0.6296694 -0.15438087

net.0.bias f4 [128]
000000 85 3c d6 be 68 13 97 be 8c 2b 13 be 33 6e 98 3e
       -0.41843048 -0.29506993 -0.1437208 0.29771575
000010 24 e0 99 be 2c ba da be 67 18 fc be d8 3d b5 be
       -0.30053818 -0.42720163 -0.49237368 -0.35398746
000020 f1 47 33 bd e8 36 ea be c0 a8 e7 be c6 fd 28 3d
       -0.04376978 -0.45745015 -0.45245934 0.041257642
000030 55 ed a9 3d 96 84 07 bf 9f a2 aa 3d 81 68 9e be
       0.082972206 -0.52936685 0.08331799 -0.30939105
000040 ac 9c be be 71 9a 1e bf d4 ad 9c be e8 30 ab be
       -0.37228906 -0.6195441 -0.3060137 -0.3343575
000050 db 55 0d 3f 0d 99 eb 3d 20 3f 3b bf e0 e7 de be
       0.5520913 0.115038015 -0.73143196 -0.43536282
000060 4b 87 19 be 8e a7 a3 bd f2 7b ee be 60 53 41 3e
       -0.14993016 -0.07990943 -0.46578938 0.18879461
000070 c3 8e 58 be 63 3c d1 be f7 fa de be 20 78 a9 be
       -0.2114821 -0.40866384 -0.43550846 -0.3309946
000080 5a 92 1b bf 3c 41 8d be 35 58 83 be 00 5f 1b bf
       -0.6077019 -0.27588832 -0.25653234 -0.60691833
000090 34 3a 22 be 39 2a 1e bf 9e de 0e 3e 85 d7 de be
       -0.15842515 -0.61783177 0.13952109 -0.43523803
0000a0 18 cc f0 be 0c cf c5 be e4 88 69 be 43 23 ef be
       -0.4703071 -0.38634527 -0.22806126 -0.4670659
0000b0 6c cf bc be 5b e2 e7 bd ce c7 0d bf 36 85 a3 be
       -0.36877 -0.11322471 -0.55383 -0.3193757
0000c0 1e 46 ad 3e 82 45 ec be 7f ce 39 bd 24 95 48 3e
       0.33842558 -0.4614678 -0.045362946 0.19588143
0000d0 e2 95 91 be ca 43 11 bf da 7f 8c be 1f a4 87 be
       -0.28434664 -0.5674406 -0.27441293 -0.26492402
0000e0 4b 41 f5 be 74 e8 03 bf fb 08 0b bf db 0f f8 be
       -0.47901377 -0.5152657 -0.5431058 -0.48449597
0000f0 e3 9d e0 be 17 05 fc be e2 77 b3 be bf 7a c0 be
       -0.43870458 -0.49222633 -0.350524 -0.37593648
000100 7e 1f de be 02 8d d0 be b2 0c 18 be fa 40 33 3e
       -0.43383402 -0.4073258 -0.14848593 0.17505255
000110 62 ce 07 be 60 2c d1 be 02 75 cc bd 9d c5 59 be
       -0.13262323 -0.40854168 -0.09983255 -0.2126679
000120 0b 76 c5 3e ac 22 7f bd 39 1b 5e be e1 be 69 3e
       0.38566622 -0.062288925 -0.21690072 0.22826721
000130 03 49 cb be c0 b3 b5 be ef 70 86 be 76 07 c9 bd
       -0.3970414 -0.354887 -0.26258036 -0.09815876
000140 3e 8e 2d bf 6e de 96 be 22 a6 9e be 71 52 89 be
       -0.6779517 -0.29466575 -0.30986124 -0.2682071
000150 c9 9c 67 be a3 56 c6 bd ab 3e 0b bf bc d4 38 3e
       -0.22618403 -0.096844934 -0.543925 0.18049902
000160 e1 a1 b4 be bb f3 f4 be d8 dd 7e bd 0a 1e 3e bd
       -0.35279754 -0.47842202 -0.062223285 -0.046415366
000170 05 36 b2 be 45 96 2c bd 16 38 40 bd 97 0a e4 be
       -0.3480684 -0.042135496 -0.046928488 -0.4453933
000180 cd b4 23 be 14 c6 2a bf 28 6b 7a be 69 7a e3 be
       -0.15986939 -0.66708493 -0.2445494 -0.4442933
000190 a0 be 00 bf 09 00 c2 bd 4c 99 ee be 13 f8 46 bf
       -0.5029087 -0.09472663 -0.4660133 -0.7772228
0001a0 c0 9c 2b bf 1e 67 09 bf 0d 8d 83 be 75 d8 11 3e
       -0.67036057 -0.5367297 -0.2569355 0.14242728
0001b0 58 8a a5 be 13 98 4d bf 69 7b 0c be ad 3a 6a be
       -0.3233211 -0.8031017 -0.13718952 -0.22873946
0001c0 30 c1 f5 bd dd f6 33 be 35 5f 93 3e 21 b2 1b bf
       -0.11999738 -0.1757464 0.28783575 -0.6081868
0001d0 79 a4 d3 be 95 03 c0 be ae 0b 81 be 23 d5 c3 be
       -0.4133642 -0.37502733 -0.25204223 -0.38248548
0001e0 2e 7b 25 3d c0 7b 24 bf cc 64 ab 3d 8e c6 d9 bd
       0.040400676 -0.6425133 0.08368835 -0.106335744
0001f0 0e c7 45 bf 34 f3 d9 be 01 d7 5f be f7 11 62 be
       -0.7725686 -0.42568362 -0.21859361 -0.22077166

net.2.weight f4 [128, 128]
000000 e4 4e 3a bd b7 9d 05 3d eb f0 88 3a 8b ac b5 bd
       -0.045485392 0.03262111 0.0010447776 -0.088708006
000010 ea 8a a8 bd 2a 58 7f bd 1d 40 41 bd ba e8 c4 bd
       -0.08229621 -0.06233994 -0.047180284 -0.096147016
000020 da a0 59 bd 7b 3e b3 bd 24 6d 1b 3c f0 9e a1 bd
       -0.053131916 -0.087521516 0.00948647 -0.07891643
000030 d6 9d c5 bd 02 91 eb 3c 67 1d 05 be d5 57 36 bd
       -0.096492454 0.028755669 -0.12999497 -0.044517357
000040 d0 2e a6 bd 65 fe 13 bc 9e a9 9a bd 8f fc 7a bd
       -0.081143975 -0.00903282 -0.07551883 -0.061276015
000050 1a 28 90 bd be 43 2e 3c 32 ea b1 3c f2 54 03 be
       -0.07038899 0.010636268 0.021718118 -0.12825373
000060 5e 5c c7 bd 77 11 99 bd b1 de a3 bd ce 96 8c 3c
       -0.097344145 -0.07474034 -0.080014594 0.017161753
000070 42 66 09 3c 67 63 37 bd c1 dd 08 bc ef f0 93 bd
       0.008386197 -0.04477253 -0.0083536515 -0.07223689
000080 e8 32 e0 bd ca 9c 82 bd f8 16 69 bd 92 56 d1 bc
       -0.109472096 -0.063775614 -0.05690667 -0.025553975
000090 3a 45 24 3d 2f 57 df bd dc 63 b3 bd 1c f0 82 bb
       0.040105082 -0.10905301 -0.08759281 -0.0039959084
0000a0 00 ad a5 3c 05 92 f0 bc 78 92 b0 bd fb b5 16 bc
       0.020224094 -0.029366503 -0.08621687 -0.009198661
0000b0 47 f1 01 be 70 1c a6 3c 4f fe 55 3d a7 01 17 3d
       -0.12689696 0.020277232 0.05224448 0.03686681
0000c0 c8 29 99 bd f7 76 85 bd 4a 1e a6 bc c5 d2 d4 bc
       -0.07478672 -0.06516831 -0.020278115 -0.025979409
0000d0 76 b7 b1 bc 81 64 3a bd 40 25 81 3d 3d aa db 3c
       -0.021693926 -0.045506004 0.06305933 0.026814574
0000e0 c5 29 71 3d 20 20 9d bc 58 07 86 3c 9f 1e 80 bd
       0.058877725 -0.019180357 0.016360924 -0.062558405
0000f0 b3 9d a6 bd a3 b6 87 bc b8 c3 5c 3c e8 82 cc bc
       -0.081355475 -0.01656658 0.013474397 -0.024964765
000100 54 d6 3b 3d f9 1a 77 3d 08 90 70 bd 0c 1f d2 bd
       0.045858696 0.060328458 -0.05873111 -0.10259828
000110 af ab ef bc 36 04 a2 38 74 b1 57 bd 30 8d f3 3c
       -0.02925667 7.725546e-05 -0.052659467 0.02973041
000120 bc f4 0c be 66 0e dd bc 23 79 d7 bd 2d 5d 08 be
       -0.13765234 -0.026984405 -0.10521152 -0.13316794
000130 62 3c 06 be 91 9f 02 bd f4 b4 8d bd 07 58 03 be
       -0.13108972 -0.031890456 -0.0691928 -0.12826549
000140 bc 92 1c bd e4 93 79 bd 01 ef 32 be c8 85 09 bd
       -0.038225874 -0.060932055 -0.17473985 -0.03357485
000150 eb 8e c7 bc 2b d4 14 be b7 03 b4 3c 69 80 ba 3c
       -0.02436014 -0.1453406 0.021974428 0.022766309
000160 95 79 40 bd e8 17 04 be 76 60 b5 bd ff ff 46 bd
       -0.04699095 -0.12899745 -0.08856289 -0.04858398
000170 58 54 0f bd ef 38 ac bd 08 d2 97 bc a7 c9 d8 bd
       -0.034992546 -0.08409297 -0.018532768 -0.10585337
000180 17 a7 49 3c b2 98 41 3d f7 b3 42 3d 0d 2d 66 3d
       0.012307904 0.047264762 0.04753491 0.056195308
000190 a1 68 0f bd cf eb 87 bd 44 87 9e bd 88 b4 81 3d
       -0.03501189 -0.06636774 -0.077406436 0.06333262
0001a0 54 03 0d 3d 1c 9d 96 39 f3 54 cd 3c 35 63 2a bd
       0.034427002 0.00028727285 0.025064921 -0.041598517
0001b0 7b 74 7f bd 5e 9b 1e bd 1b 50 ba 3c 83 86 3b 3d
       -0.062366944 -0.03872239 0.022743275 0.045782577
0001c0 30 4b 5e 3d 45 23 aa 3d 70 14 e5 3c d9 2f 0f bd
       0.054270923 0.083075084 0.027963847 -0.03495774
0001d0 a9 dd 86 3c 3c eb cb bc 1e a2 35 bd 99 18 b7 bd
       0.016463118 -0.024892442 -0.04434406 -0.089402385
0001e0 4f cf fc bd b0 c8 88 bb 5b 93 36 3d 70 53 cb bd
       -0.123442285 -0.0041743144 0.044574123 -0.09928024
0001f0 7b dc 7b 3d 03 48 02 bd 25 75 18 bd 27 29 72 bd
       0.061489563 -0.031806957 -0.037221093 -0.059121277
000200 5e 78 e1 3d 1b d2 1b be 06 5f 1b be 84 ab 08 be
       0.11009286 -0.15216868 -0.15172967 -0.13346678
000210 16 4f 9c 3d 27 bb 58 be b0 81 cc bd fa cb 34 3b
       0.07632272 -0.21165143 -0.099856734 0.00275874
000220 51 cc bb bc 21 87 12 be 9e e5 a7 3d dc ac e5 b8
       -0.022924574 -0.1430936 0.08198093 -0.000109517685
000230 06 f3 a7 be 34 cc 47 3e 1c 63 e4 bd 78 dd f9 3d
       -0.328026 0.19511491 -0.11151716 0.12200445
000240 e1 3c 45 3e e6 56 ca bd 0a 53 a9 be a5 62 57 bd
       0.19261505 -0.09879856 -0.33071166 -0.05258431
000250 92 90 54 3e f1 c9 21 3d ba b7 0c be e7 57 44 bd
       0.20758274 0.039499227 -0.13741961 -0.047935393
000260 7f 7b 17 3d 7a 68 ef 3c 41 dd 2b bc a4 84 5a 3d
       0.03698301 0.029224623 -0.010489763 0.053349152
000270 ae b7 22 3d bf fb 7c be 03 09 10 bd 2c ed 2e be
       0.03972595 -0.24705409 -0.035164844 -0.17082661
000280 df b8 59 be 6d 8a e5 bd d6 aa b4 bd 3d 1e 6c 3d
       -0.21261929 -0.11208043 -0.08821647 0.057646025
000290 47 5e 0d be f5 9b 7f 3d f6 02 b5 bc 50 a6 86 3e
       -0.13805495 0.06240459 -0.022096138 0.2629876
0002a0 41 1c 93 be 1b ba 16 3e 1e 82 aa be 4a de ec be
       -0.28732494 0.14719431 -0.33302397 -0.46263343
0002b0 ad 68 d0 be f2 f0 79 be f7 8a 04 be 71 e6 03 3d
       -0.4070486 -0.2440832 -0.12943636 0.032202188
0002c0 05 54 8c 3e a3 8d 49 bb 16 f0 4a be 79 28 c7 bd
       0.27407852 -0.0030754588 -0.19818148 -0.097245164
0002d0 d8 1e ac be 36 77 d9 3c b1 cb 09 3e 33 97 98 bd
       -0.33617282 0.026546102 0.13456608 -0.07450714
0002e0 f2 73 9e 3d 35 0b 44 3d a1 16 f8 be 8e 3f 24 3d
       0.077369586 0.04786225 -0.48454764 0.040099673
0002f0 5c 63 17 3e 8a d7 94 3b 79 70 cd 3b af 61 77 3e
       0.14783996 0.004542296 0.0062695113 0.24158357
000300 66 0e 33 bd 50 17 66 3d 26 a2 0c 3d ba e6 f7 3d
       -0.043714903 0.056174576 0.034334324 0.121045545
000310 88 db d8 be f3 f9 3e 3d 9c 54 b5 be 66 8d a4 3d
       -0.4235499 0.04662509 -0.35416114 0.08034782
000320 39 b5 9c 3e f5 1d a0 bd e2 96 18 bd 52 fc 1e 3e
       0.30607012 -0.07818214 -0.037253268 0.1552594
000330 41 6a 07 3e 50 13 6f 3e 22 ae 17 bf 57 64 b4 be
       0.13224126 0.23347211 -0.5925008 -0.35232803
000340 97 a3 63 be c7 02 91 be 09 22 67 be 06 67 74 3e
       -0.22230373 -0.2832243 -0.22571577 0.23867425
000350 fa de 87 be 8b c1 94 bd 85 0d 8f bd 61 10 55 3d
       -0.26537305 -0.07263478 -0.069850005 0.052017573
000360 5d 10 cd 3c 08 5d 39 be 5b 9b 80 3d 8e c3 3d be
       0.025032217 -0.18101895 0.06279632 -0.1853163
000370 26 f4 27 3e fa 26 90 3e 67 f4 95 be 3a cd 7f bd
       0.16401729 0.28154737 -0.29288027 -0.06245158
000380 c8 70 82 be cc fc 89 3e 4b 11 96 be 5f db f5 be
       -0.2547667 0.2695068 -0.29310068 -0.4801893
000390 ad 36 06 be 9f 2e ca 3d 9a 8e 80 3e 47 52 af 3e
       -0.13106795 0.098721735 0.25108796 0.3424246
0003a0 5e d5 9d be ac 84 23 3e 5c 95 e3 3b dd a1 64 3e
       -0.3082685 0.15968579 0.0069452953 0.22327371
0003b0 19 87 2e be dc 1b f4 bd f0 cf 91 bd 1f 3d 09 bf
       -0.17043723 -0.11919376 -0.07119739 -0.5360889
0003c0 dc 6a 27 be ed 02 48 be 53 af 9e 3c a5 74 1b be
       -0.16349357 -0.19532366 0.01937071 -0.15181215
0003d0 50 ff 78 3e c6 36 23 3d 52 a6 29 3e e5 e9 0c 3c
       0.24316144 0.039847158 0.16567352 0.008600687
0003e0 2f 08 01 be f9 1e 5d be d6 b2 8d be eb 4e 2b be
       -0.12600778 -0.21593846 -0.27675503 -0.16729324
0003f0 00 f5 71 bd f6 b2 64 be e9 67 c8 3d a0 2b c5 bc
       -0.05907154 -0.22333893 0.09785444 -0.024068654

net.2.bias f4 [128]
000000 b8 55 ec bc 79 b5 3b 3f c8 60 17 be a9 02 cd be
       -0.028849468 0.7332378 -0.14783013 -0.40041092
000010 d1 a0 c2 3e 95 30 74 bd 0d d7 ab be 09 6c ab be
       0.38013318 -0.059616644 -0.33562508 -0.33480862
000020 4d f2 18 be 1d bd fe 3e fd 33 e4 be 7a e5 91 bd
       -0.1493618 0.49753657 -0.44570914 -0.07123847
000030 fc 32 2f be ef 02 00 be ce 15 3c 3f 81 52 46 be
       -0.17109293 -0.12501119 0.7347077 -0.1936741
000040 69 20 08 3e 03 8e 8c bc ee 1a 2b bf 0f c4 9a be
       0.13293613 -0.01715756 -0.66837966 -0.30227706
000050 6e 22 a4 3e 17 71 0e be 0a 1b a6 3e 28 be 60 3e
       0.32057518 -0.13910328 0.32442504 0.21947539
000060 c4 6b 94 bd ed d1 0f be 1c c1 ab 3e 05 f4 68 bd
       -0.07247117 -0.14044924 0.33545768 -0.05687334
000070 78 fb 0e 3e ea 2e fd bd 80 64 95 bd 84 e2 e7 be
       0.13963115 -0.12362464 -0.072945595 -0.45290005
000080 24 24 94 3e cd ef 0d be 25 54 c7 bd bd ca f2 be
       0.28933823 -0.13861008 -0.09732846 -0.47420302
000090 5b a9 e6 bd 1b 93 59 3f f6 fb c4 bd 04 36 74 3e
       -0.11262771 0.8499009 -0.0961837 0.2384873
0000a0 ea ae 04 bf 21 f5 9a bd bf 2c c2 3d 5b 9f d9 bd
       -0.518294 -0.07566286 0.09481191 -0.10626098
0000b0 20 66 33 be cd a1 4b 3e bd a0 03 3a d0 df 94 bd
       -0.17519426 0.19885941 0.0005021205 -0.07269251
0000c0 84 d8 e3 3d 05 b0 d5 bd 08 0c 93 be e1 69 dc bd
       0.111252815 -0.10433964 -0.28720117 -0.10762382
0000d0 9c de 13 bf 76 32 eb bd 26 b7 0a bd 9f 7f 15 3e
       -0.5776155 -0.11484234 -0.03386607 0.14599465
0000e0 0c ad 0e be 7f 0a e3 3c 75 da 68 bd 03 3e 29 be
       -0.139332 0.027714966 -0.05684896 -0.16527562
0000f0 05 c4 e5 be 02 b1 3d 3f 8c 0b 68 be a0 b9 2d 3f
       -0.44876114 0.7409822 -0.22660655 0.67861366
000100 e0 1e 2b 3f 71 c7 b5 bd e6 84 61 3f ed 26 c1 3c
       0.66843987 -0.08875931 0.8809341 0.023578132
000110 b8 c7 c1 3d 69 9f 5a 3f c1 54 e4 bd e2 94 b2 be
       0.094619215 0.8539949 -0.11148978 -0.34879214
000120 97 81 ef bd 35 17 58 3e ca 93 36 bd d0 4f a5 bd
       -0.11694639 0.21102603 -0.044574536 -0.08071864
000130 9c ae 60 3f 12 0b 11 be 76 58 1b bf da 6f 4f be
       0.8776643 -0.14164379 -0.60681856 -0.20257512
000140 c9 a9 78 be b5 d1 c8 bd 58 fd 43 bd 71 ca 3d bf
       -0.24283518 -0.098056234 -0.04784903 -0.74137026
000150 cf 53 7a 3f 3c be d4 3d 71 6b 24 3e 87 f6 29 be
       0.9778413 0.10387847 0.1605661 -0.16597949
000160 40 a5 0a be d5 b3 9f be da 78 96 3e 19 a5 f7 be
       -0.135396 -0.31191888 0.29389077 -0.48368147
000170 fb 24 03 bd df ae 1f 3f 61 bf 58 bd b1 56 06 be
       -0.03201769 0.6237621 -0.05291689 -0.13119008
000180 9f b9 4e be ab f2 86 3e d8 93 93 bd fd 5b 88 be
       -0.20187996 0.26357016 -0.07205933 -0.2663268
000190 d4 d1 e3 3c 24 44 fd be 00 0c 70 3f 3d 69 59 bd
       0.027810015 -0.4946605 0.9376831 -0.05307888
0001a0 e6 9a 7d be ed 09 66 bd 78 85 a7 be f1 03 22 3f
       -0.2476612 -0.05616181 -0.32719016 0.63287264
0001b0 af 54 a2 bd a8 3b 5b be dc 7d f2 bd 4a 88 5a 3e
       -0.07926308 -0.21409476 -0.11840412 0.21341053
0001c0 22 79 91 bd c4 42 c3 bd a1 0a b7 bc 9f 1b 03 bf
       -0.071031824 -0.09534219 -0.022343935 -0.5121402
0001d0 81 bc 1f bb b5 0e cc bd 22 47 d8 bd 01 ed 09 bf
       -0.0024373832 -0.09963743 -0.105604425 -0.53877264
0001e0 d9 91 cc bd f8 0c bf bd d9 bd e7 bb 6f 91 25 be
       -0.09988756 -0.093286455 -0.007072192 -0.1616876
0001f0 a9 6c ac 3e 34 44 b6 bd e7 dd 7b 3e 1f 84 12 3e
       0.3367665 -0.088997275 0.24596368 0.14308213

net.4.weight f4 [4, 128]
000000 fd 1d b0 3d 2f a4 85 3e 23 a0 8d 3e 9a 99 6a be
       0.0859947 0.26101825 0.27661237 -0.22910157
000010 14 72 d8 3d b3 24 a2 bd 40 e0 cb 3e 7e 13 99 3e
       0.10568634 -0.07917156 0.39819527 0.29897684
000020 fb 29 df bc 3a a9 84 3e a1 2e a3 3e 2a bf 6b 3d
       -0.027241698 0.2591036 0.31871513 0.057555355
000030 f3 cc 3c bd 82 59 36 bd d1 63 e7 3e d5 8d ba 3c
       -0.046093892 -0.044518955 0.4519334 0.022772709
000040 c1 a2 2e bf 06 aa dc 3c 50 4e 48 3e 64 63 0d bd
       -0.6821709 0.026936542 0.19561124 -0.034518614
000050 c2 00 fc 3d ca d2 36 bf 73 95 1a 3e 2b fc d5 be
       0.12304832 -0.7141539 0.15096073 -0.4179395
000060 92 89 28 bd 55 e8 a1 3d d2 70 35 bf 64 ec 18 be
       -0.041146822 0.07905642 -0.70875275 -0.14933926
000070 74 0d 34 bf 7c 3d c1 be 4e ad f2 3e ec 14 8b 3e
       -0.7033303 -0.3774222 0.47397846 0.271644
000080 e3 61 49 bf 38 5f 91 3e fd 96 74 bd e3 b9 38 3b
       -0.7866499 0.2839296 -0.059714306 0.002818697
000090 22 68 9d 3d 48 69 a9 3e 9a f1 d0 3d b2 e7 80 3d
       0.076858774 0.33088136 0.10202332 0.062941924
0000a0 96 88 29 bd da bf 7a bd 8b 3c 2b bf fa 61 37 3d
       -0.041390024 -0.06121812 -0.66889256 0.044771172
0000b0 c5 21 13 3f f7 33 d4 3d 59 e0 e6 3e 74 a4 c6 3e
       0.57473403 0.10361474 0.4509304 0.38797343
0000c0 e6 8c c5 bd 2d 8b f9 bd 5f fc 5a bf c3 5f 86 bd
       -0.09646015 -0.12184749 -0.8554134 -0.06561234
0000d0 10 02 97 3e c6 ab 3f be 43 e4 69 3f ef ea 80 3c
       0.2949376 -0.1871787 0.91363925 0.015737025
0000e0 ee b6 2e be 6c ae 7c 3e 53 21 9d 3d 75 2f b4 3e
       -0.1706197 0.24675912 0.07672372 0.35192457
0000f0 8f 13 9e bf c0 c6 14 3e cb fb 15 be 68 58 1a 3e
       -1.2349719 0.14528942 -0.14646833 0.15072787
000100 a2 ba 51 3e 38 f2 82 bc 46 15 dc 3e 55 45 3e bf
       0.20481351 -0.01598464 0.4298498 -0.7432454
000110 9b 09 12 bf a6 90 ae 3e f2 bb 03 3d c9 00 22 3f
       -0.57045907 0.34094733 0.03216166 0.6328245
000120 df c2 d8 be 57 da de be a4 09 d5 be 0e a8 04 3f
       -0.42336175 -0.43525955 -0.41608918 0.5181893
000130 44 5b ce 3e 85 6a 48 bd d5 dd e4 3d 05 a7 4f bc
       0.40304005 -0.04892971 0.111751236 -0.012674098
000140 82 dd 41 3e cb 1c 31 3f fe 44 88 ba 3e 69 88 3e
       0.18932155 0.6918456 -0.0010396538 0.26642793
000150 20 61 b8 3e 29 a1 5d 3b c7 00 04 bf c6 de fd 3c
       0.360116 0.0033817983 -0.51563686 0.030990016
000160 76 1e bb 3b 32 b9 38 3f 55 7a 07 bf 57 08 e8 3e
       0.0057104183 0.72157586 -0.5292104 0.45318863
000170 16 f9 ad 3e 37 88 81 3e b3 67 db 3e 49 ee 11 bd
       0.339791 0.25299236 0.42852554 -0.035627637
000180 40 87 82 3e d9 3b 6b bf 0b 46 4d bf c2 85 4c 3e
       0.25493813 -0.91888195 -0.80185 0.199729
000190 1d a5 d2 3e 41 8e 34 be 60 9c cf 3e 8d 8b 02 bd
       0.41141596 -0.1763239 0.40548992 -0.031871367
0001a0 15 9e 96 3e 26 80 82 3e b8 83 13 3e b1 13 94 3e
       0.29417482 0.25488394 0.14405715 0.28921273
0001b0 1e 08 aa be 7a 8f 99 bf e8 f0 68 bc fc 78 2e 3d
       -0.33209318 -1.199691 -0.014217593 0.04259585
0001c0 7c 8b f1 3c be 2e 31 3f 68 cb df bc 52 f7 ab 3d
       0.029485457 0.6921195 -0.027318671 0.08396782
0001d0 1a 5b 1a bc bf 27 42 bb 55 d3 2f bc 5d dd 3f bd
       -0.009421134 -0.0029625741 -0.010731538 -0.046841968
0001e0 d9 16 fc 3e ec e8 40 bd ca d4 cb 3d ef 16 59 bc
       0.4923618 -0.04709713 0.09952696 -0.013250097
0001f0 85 b4 d6 3d 74 bf e2 39 88 b7 25 be a6 37 bc be
       0.1048365 0.00043248723 -0.16183293 -0.36761206
000200 b7 94 59 3c 49 5a 89 3e f1 3d 13 bf d5 85 b7 be
       0.013280085 0.26826695 -0.5751639 -0.35844293
000210 23 c8 81 3d cc 78 27 bc b3 16 53 be cd 37 36 3f
       0.06337001 -0.010221671 -0.20614128 0.71178895
000220 49 a7 f5 3c 9d 3f 5a 3e d2 f4 54 be 82 0d be 3c
       0.029986994 0.21313329 -0.20796517 0.0231998
000230 e3 aa f8 bd 76 82 70 bd e2 25 ab 3e 09 d5 83 bd
       -0.12141969 -0.058718167 0.3342734 -0.064371176
000240 a7 86 2d 3c 61 67 5e bd b1 39 27 3f ad a5 c0 3d
       0.010591186 -0.05429781 0.65322405 0.094066
000250 66 76 c9 bd 91 a5 ae 3d 4e 25 a8 3e 2f 60 56 bf
       -0.09837036 0.08527673 0.3284096 -0.83740515
000260 8a a9 9a 3d fb 31 e2 3e b2 de b5 be 8a a3 82 3f
       0.07551868 0.44178757 -0.35521466 1.0206158
000270 dc e3 08 bf 6f bd 80 bd 83 7d 8d bd a0 f3 ec 3c
       -0.53472686 -0.062861316 -0.06908705 0.028924763
000280 3a cb 61 3e 5c 72 40 be b3 da 39 be 4c ef fe 3e
       0.22050181 -0.18793625 -0.18149833 0.49791944
000290 b1 05 97 bc 84 36 ad 3e f0 e1 25 bc 6b ec 03 3d
       -0.018435331 0.33830655 -0.0101246685 0.032207888
0002a0 dc eb a3 3e 4b 2b bb bb 6c d9 af 3e 3f a4 48 3d
       0.32015884 -0.005711948 0.34345567 0.048984762
0002b0 86 19 f5 be f1 a1 56 bf cc 69 87 3d b2 0f 42 3e
       -0.47871035 -0.8384085 0.06611976 0.189513
0002c0 72 8f 68 bf 41 a8 fe bd 2b 8f 74 be 17 e4 3e bd
       -0.9084388 -0.12434436 -0.23882739 -0.046604242
0002d0 0c 41 ba 3d 1f d7 4f bf 7d ea 00 bf e4 8d 3c b9
       0.09094438 -0.81187624 -0.503578 -0.00017981936
0002e0 00 3c 43 bb 22 37 6f 3b eb 7e 44 be 7a 5a bb 3e
       -0.0029790401 0.0036501368 -0.1918904 0.36592466
0002f0 6d c8 19 3f 95 76 89 3e 8a b5 5f be 0e c4 8f 3e
       0.6007145 0.26848283 -0.21846595 0.28079265
000300 8c bc 7e 3e b9 97 27 3d c9 b6 ca 3e a7 17 2b 3c
       0.24876612 0.04091618 0.3959258 0.010442651
000310 a4 7b 87 bf 0a aa 9d 3e fc 99 31 3d 5c 57 81 bf
       -1.0584607 0.30793792 0.04335974 -1.0104785
000320 c1 28 03 bf 64 79 58 be f8 ac 75 3f 32 e6 18 bf
       -0.5123406 -0.21140057 0.95967054 -0.5972625
000330 a6 aa cf 3e 43 a9 5b bd fd 5a 20 3f 46 2b 9c bd
       0.40559882 -0.053628217 0.6263884 -0.07625441
000340 13 52 ec 3e 85 3e 93 3d 34 25 0f bd 17 9e f5 3e
       0.46156368 0.07189659 -0.03494759 0.47972175
000350 83 2e ce 3e e6 40 3e bf 95 56 53 bf 52 63 87 bd
       0.4026986 -0.7431778 -0.8255399 -0.06610741
000360 ab 1e 96 3b dc fc f4 bd e9 b2 63 bf 54 51 d3 bd
       0.0045812926 -0.119622916 -0.8894487 -0.103182465
000370 07 2a ec 3e b8 5c 3f 3e c8 ee 10 3e 6e 68 d7 3c
       0.46125814 0.18687713 0.14153588 0.026294913
000380 1c 17 81 3e 59 cc 3d be bb 77 e8 be e8 02 20 bf
       0.25212944 -0.18534984 -0.45403847 -0.62504435
000390 5c fe bb 3e b1 ed da 3e 43 0d ce 3e 9a 4a c8 bb
       0.36717498 0.4275947 0.40244493 -0.006112409
0003a0 10 76 2f be 42 46 88 3e 9f 2c 2c bf 76 af 70 3e
       -0.17134881 0.26616102 -0.67255586 0.23504433
0003b0 6f a7 5c 3e 75 ac 89 3e 7b a7 5c 3c 99 05 b7 be
       0.21548246 0.26889387 0.013467665 -0.35746458
0003c0 cd 0e a8 ba 93 d4 64 bf c9 ba 55 bd 4a 6e 14 3f
       -0.0012821794 -0.8938686 -0.052180085 0.5798079
0003d0 e1 e5 dc 3d 1f f7 28 3f 89 51 35 3d b8 35 46 3f
       0.107860334 0.66002077 0.04426721 0.7742572
0003e0 c1 59 92 be 77 ca 96 3d e0 82 3c 3c 32 3a f3 bc
       -0.28584102 0.07362836 0.011505812 -0.029690836
0003f0 69 19 bb 3d 42 8d d1 bc 5a 5a 61 3e 19 be 4a 3e
       0.09135706 -0.025580052 0.22007123 0.19799079

net.4.bias f4 [4]
000000 14 2e 31 3f d8 ff 66 3f a2 fe 46 3f c6 14 49 3f
       0.69210935 0.90234137 0.7773229 0.7854732
