dqn_snake.pt (torch, 81965 bytes, 6 tensors)

net.0.weight f4 [128, 20]
0	0x3e078282	0.13233379
1	0x3dff0cbe	0.12453602
2	0x3e519715	0.2046779
3	0xbeca514f	-0.3951516
4	0xbf5952fb	-0.84892243
5	0x3e0167ef	0.12637304
6	0xbe3a8ee4	-0.18218571
7	0xbdb8aa7b	-0.090168916
8	0xbe9f31b7	-0.31092617
9	0x3b9bc06d	0.0047531636
10	0x3eb18061	0.34668258
11	0xbeb0f3a7	-0.34560892
12	0xbdd18e3f	-0.102322094
13	0xbd8436bd	-0.06455753
14	0xbcce1337	-0.025155647
15	0xbe2be15a	-0.16785184
16	0xbd5ba829	-0.053627167
17	0xbe5ee5b2	-0.2176731
18	0xbe034d22	-0.12822393
19	0x3e954d34	0.29160464
20	0xbf16974b	-0.58824605
21	0x3f134f24	0.57542634
22	0xbf29383e	-0.66101444
23	0xbed056cd	-0.40691224
24	0xbf65c34b	-0.8975112
25	0xbdccbe85	-0.09997276
26	0x3e274f2a	0.16338792
27	0x3db0cf6c	0.086333126
28	0xbf5261a9	-0.8218027
29	0xbf883651	-1.0641576
30	0xbe9ca327	-0.30593225
31	0xbf9803bf	-1.1876143
32	0x3e931baf	0.28732058
33	0xbf08d95b	-0.5345666
34	0x3f0628b2	0.52405846
35	0x3e03ac57	0.12858711
36	0xbf4c4129	-0.79786927
37	0xbf59be78	-0.8505626
38	0x3d0f2017	0.034942713
39	0x3f08314c	0.5320022
40	0x3f10e9b9	0.5660663
41	0xbf01e17e	-0.507347
42	0x3e1311d1	0.14362265
43	0xbea8cfdd	-0.32971087
44	0x3f4543f4	0.77056813
45	0xbf46f67d	-0.7771986
46	0x3dd17be4	0.102287084
47	0xbe7d80cf	-0.24756168
48	0x3e535feb	0.20642059
49	0xbf591c33	-0.84808654
50	0xbe5e3592	-0.21700123
51	0xbf0e8e06	-0.5568546
52	0xbe55e022	-0.20886281
53	0x3e99a8d0	0.30011606
54	0xbe80ae75	-0.251331
55	0x3edbdf5e	0.42943853
56	0xbf625122	-0.8840505
57	0xbef0b490	-0.47012758
58	0xbe2e35de	-0.17012736
59	0x3ec5f6cd	0.38664857
60	0xbf2e894c	-0.6817825
61	0x3e5d4ed5	0.21612103
62	0xbf4eab89	-0.8073049
63	0xbe0df604	-0.13863379
64	0xbf776194	-0.9663327
65	0xbe37541d	-0.1790318
66	0x3dd284fa	0.102792695
67	0xbf7f1270	-0.9963751
68	0xbe769208	-0.24079144
69	0xbedbebea	-0.42953426
70	0xbf0bf1d3	-0.5466587
71	0xbda32492	-0.079659596
72	0x3e0e5ad0	0.1390183
73	0x3d313530	0.043263614
74	0x3e71138a	0.2354261
75	0xbe36e5bd	-0.17861076
76	0xbe23a828	-0.15982115
77	0xbf18c213	-0.59671134
78	0x3e42eae6	0.19034919
79	0x3ea5dfa1	0.32397178
80	0xbe9e603e	-0.30932802
81	0x3f0cc64a	0.54990065
82	0x3e8d716f	0.27625605
83	0xbe477e0f	-0.19481681
84	0xbee31ddb	-0.44358715
85	0xbf403bfe	-0.7509154
86	0x3e42511a	0.1897625
87	0x3c3efec8	0.011657424
88	0xbf4d069c	-0.8008821
89	0xbf4a7383	-0.79082507
90	0xbdf1fd5d	-0.11815903
91	0x3e6c9c6e	0.23106548
92	0xbf1a24ca	-0.60212386
93	0x3f042299	0.5161529
94	0xbef7a017	-0.48364326
95	0xbf455d36	-0.77095354
96	0x3ee722b5	0.45143667
97	0xbf02a687	-0.5103535
98	0xbd8c0aa6	-0.068379685
99	0xbeba1759	-0.36345938
100	0x3e7193c6	0.23591527
101	0xbdd1f4a6	-0.10251741
102	0xbf23ed13	-0.6403362
103	0xbe5f021d	-0.2177815
104	0x3f15bf1e	0.58494747
105	0x3e2a643f	0.16639803
106	0xbe1a48ee	-0.15066883
107	0x3d3159da	0.04329858
108	0x3e2f92be	0.17145821
109	0xbb062969	-0.002047146
110	0x3f2b490c	0.66908336
111	0xbf53249c	-0.82477736
112	0xbe89280a	-0.2678836
113	0x3df151d1	0.11783183
114	0xbf5ca049	-0.86182076
115	0x3f123e48	0.57126284
116	0x3ede19f0	0.43379164
117	0xbe43e96f	-0.19132017
118	0xbe05cfea	-0.13067594
119	0xbf878f44	-1.0590596
120	0x3f1efa1a	0.62100375
121	0xbd82f374	-0.06394091
122	0xbf06c611	-0.52645975
123	0xbe6d8215	-0.23194154
124	0xbf857149	-1.0425197
125	0xbf934883	-1.1506504
126	0xbd3fedfc	-0.04685782
127	0x3eaa2d69	0.3323777
128	0xbc7556dc	-0.014974322
129	0xbfb3af79	-1.4037925
130	0xbf8b8172	-1.0898879
131	0xbf340552	-0.7032062
132	0x3f637d21	0.88862807
133	0xbedbbc40	-0.4291706
134	0xbf99bf20	-1.2011452
135	0xbf11990c	-0.56874156
136	0xbf3ce4e1	-0.7378674
137	0xbd9e5cab	-0.07732519
138	0x3ed302b2	0.41212994
139	0x3cb57487	0.022150291
140	0xbf7ba91b	-0.9830491
141	0xbefe36ea	-0.4965127
142	0xbef70723	-0.48247632
143	0xbf70a58f	-0.9400262
144	0xbe315aef	-0.17319845
145	0x3f835c29	1.02625
146	0x3e93f628	0.2889874
147	0x3e9030af	0.28162143
148	0xbe66014d	-0.22461434
149	0x3d414f8e	0.04719501
150	0xbe7906bf	-0.2431898
151	0x3eac22f5	0.3362042
152	0xbcaafc17	-0.020872159
153	0x3ee130c0	0.43982506
154	0x3ee5454f	0.4477944
155	0xbeb5e729	-0.35527924
156	0x3dd8c6c8	0.105847895
157	0x3e8e63a7	0.27810404
158	0x3f17123d	0.59012204
159	0xbe0eb3c6	-0.13935766
160	0xbfa52c32	-1.2904112
161	0x3e6393a3	0.22224288
162	0xbf201073	-0.625251
163	0xbcdc2919	-0.026875066
164	0x3c7c8a46	0.015413826
165	0xbf1dfb8a	-0.61711943
166	0xbdf208e2	-0.118181005
167	0xbf79bc92	-0.9755336
168	0xbe8ea07b	-0.27856812
169	0xbe18bc0f	-0.14915489
170	0x3dbe755e	0.0929973
171	0x3f0e6496	0.5562223
172	0xbee65c5f	-0.4499235
173	0x3f0330c5	0.5124629
174	0xbf454272	-0.7705451
175	0x3e82879a	0.2549408
176	0xbe88c024	-0.26709092
177	0x3d5b44a7	0.05353227
178	0xbed6db82	-0.41964346
179	0x3ed05ea5	0.40697208
180	0xbf1cdb6a	-0.612723
181	0x3eb34db9	0.35020235
182	0xbf20c575	-0.62801296
183	0x3de46be1	0.11153389
184	0xbd95152b	-0.07279428
185	0x3e8a928d	0.27064934
186	0x3eaf3861	0.342227
187	0x3e9b9611	0.3038793
188	0x3e6ca483	0.23109631
189	0x3e212efb	0.15740578
190	0x3f3701a3	0.7148687
191	0x3e46a894	0.19400245
192	0xbea17ad6	-0.3153903
193	0xbf553996	-0.83290994
194	0xbf1f490e	-0.6222085
195	0x3cacad5c	0.021078758
196	0xbf5fb80e	-0.8739022
197	0x3ea64e1a	0.32481462
198	0xbeac6e05	-0.33677688
199	0xbeae350c	-0.34024847
200	0x3dc6f818	0.09715289
201	0x3e76b159	0.2409109
202	0x3f2a6317	0.6655745
203	0x3f127a72	0.57218087
204	0xbf55993f	-0.8343696
205	0xbf14d75d	-0.5814112
206	0xbd2cdfdc	-0.042205676
207	0xbf05f868	-0.5233216
208	0xbe9fd53d	-0.31217375
209	0xbee22984	-0.441723
210	0xbeb55619	-0.3541725
211	0xbe23bf2e	-0.15990898
212	0xbfa0fdfd	-1.2577511
213	0x3f198d96	0.5998167
214	0xbcb24d4b	-0.021765372
215	0x3f0c0fea	0.5471178
216	0xbec7beae	-0.39012665
217	0xbe17f740	-0.14840412
218	0xbe91ebc1	-0.28500178
219	0xbf0ada8e	-0.5423974
220	0xbe844c02	-0.2583924
221	0xbe025e81	-0.12731363
222	0x3ecb2ab1	0.39681008
223	0x3e9049e8	0.28181386
224	0x3c8cdab1	0.017194124
225	0xbe4a0b5c	-0.19730896
226	0x3e830f06	0.255974
227	0xbf0245d9	-0.5088783
228	0x3f0c5709	0.54820305
229	0xbf5bffcb	-0.85937184
230	0xbf38a2d7	-0.72123474
231	0x3df2e4ca	0.11860044
232	0x3f1085b8	0.5645404
233	0xbe0e01e5	-0.1386791
234	0xbdda848e	-0.10669814
235	0xbf73a321	-0.9517079
236	0xbf2187a1	-0.6309758
237	0xbd9fe097	-0.07806509
238	0x3eca1025	0.39465442
239	0xbe4636de	-0.19356868
240	0x3eebeefd	0.4608077
241	0x3e8d2fe2	0.27575594
242	0xbf4522fb	-0.770065
243	0x3e87b371	0.2650409
244	0xbf7d7d80	-0.9901962
245	0x3f065717	0.5247664
246	0x3dc4c849	0.09608514
247	0xbed6de4f	-0.41966483
248	0xbe027a5c	-0.12741989
249	0x3e39fd78	0.18163097
250	0xbe26ea61	-0.16300346
251	0xbeec5f2f	-0.4616637
252	0x3e25b386	0.16181764
253	0xbe1f1d3a	-0.15538493
254	0x3d15cafd	0.036570538
255	0x3f1935f7	0.5984797

net.0.bias f4 [128]
0	0xbe873c32	-0.26413113
1	0xbeffd954	-0.49970496
2	0xbebddf7e	-0.37084574
3	0xbebf5a4e	-0.37373585
4	0xbe955956	-0.2916972
5	0xbe55683b	-0.20840542
6	0xbec52ece	-0.38512272
7	0x3ee6952b	0.4503568
8	0xbd635ccf	-0.05550843
9	0xbe9a4f1b	-0.30138478
10	0xbd4f14c7	-0.050556924
11	0xbe59213c	-0.21204084
12	0x3c3c2e21	0.011485607
13	0xbf012018	-0.50439596
14	0xbf2a8265	-0.66605216
15	0xbed761b7	-0.42066738
16	0x3ed035e7	0.40666124
17	0xbe499ff9	-0.19689931
18	0xbdf8a42a	-0.12140687
19	0xbeae9e5b	-0.3410519
20	0xbf055eea	-0.5209795
21	0xbe341e1c	-0.17589611
22	0xbeb978be	-0.3622493
23	0x3ec5e676	0.3865239
24	0xbeeb2860	-0.4592924
25	0x3dc1ca69	0.09462435
26	0xbe637e3d	-0.22216125
27	0xbe40f7e3	-0.18844561
28	0x3ee4989b	0.4464768
29	0xbe84ea29	-0.259599
30	0xbdcf071e	-0.10108779
31	0xbf21f6f7	-0.63267463
32	0xbee20ce8	-0.44150472
33	0x3f269fee	0.65087783
34	0xbee9ecab	-0.45688376
35	0x3eb00c29	0.34384277
36	0xbe9d273f	-0.30694005
37	0xbe571baa	-0.21006647
38	0x3b867586	0.0041033654
39	0x3ea70b81	0.32625964
40	0xbdb54b94	-0.08852306
41	0xbe285406	-0.16438302
42	0xbf176f95	-0.59154636
43	0xbec9bc41	-0.3940144
44	0xbe53af6c	-0.20672387
45	0xbeab8f71	-0.33507875
46	0xbe67ddda	-0.22643223
47	0xbe988b3b	-0.29793724
48	0x3e22fa4b	0.15915792
49	0xbd60815c	-0.054810867
50	0xbf0463b8	-0.5171466
51	0xbd58c2f2	-0.05292029
52	0xbf043989	-0.5165029
53	0xbeb1f10f	-0.34754226
54	0xbe5e50a7	-0.21710454
55	0xbf125a0b	-0.57168645
56	0xbe44ac04	-0.19206244
57	0xbf13d91e	-0.5775317
58	0xbeb2feec	-0.34960115
59	0xbdcc0ecb	-0.09963759
60	0x3d822bfc	0.063560456
61	0xbc4581bb	-0.012054856
62	0xbe5b6daf	-0.2142856
63	0xbe875b5c	-0.2643689
64	0x3e1e7460	0.15474081
65	0xbe821afb	-0.2541121
66	0x3ee26701	0.4421921
67	0xbd7e3c3e	-0.06206917
68	0xbe28aec0	-0.16472912
69	0xbe6b5e5f	-0.22985218
70	0xbeba9a1f	-0.3644571
71	0xbdc92bf4	-0.098228365
72	0xbf2e68e7	-0.6812882
73	0xbe968acd	-0.29402772
74	0xbeb0647e	-0.3445167
75	0xbeacb16a	-0.33729106
76	0xbe95bf79	-0.29247645
77	0x3e4fab0b	0.20280091
78	0xbe248898	-0.16067731
79	0xbf1e92a3	-0.619425
80	0xbeaede31	-0.34153894
81	0x3e9105df	0.28324792
82	0xbe27fef0	-0.16405845
83	0xbec5c96c	-0.38630235
84	0xbd69580f	-0.056968745
85	0x3d105c11	0.03524405
86	0xbe84fcf8	-0.2597425
87	0x3e7d7bab	0.24754207
88	0x3ead7e1b	0.33885273
89	0xbee23b68	-0.44185948
90	0x3e9b108c	0.30286062
91	0xbe9391d3	-0.28822193
92	0xbe8d8dd0	-0.27647257
93	0xbe960174	-0.29297984
94	0xbec18b00	-0.3780136
95	0xbebf6f7d	-0.37389746
96	0xbe07eaf2	-0.13273218
97	0xbe477af8	-0.19480503
98	0xbea37fac	-0.31933343
99	0xbe83dce0	-0.25754452
100	0xbc91ade1	-0.017783107
101	0xbde7d911	-0.11320699
102	0x3e7fa8b5	0.249667
103	0xbeb0a5ee	-0.34501594
104	0xbec97760	-0.39348888
105	0x3cec1430	0.02881822
106	0xbee1bc31	-0.4408889
107	0x3d1c30c9	0.038132463
108	0x3de1cd67	0.110255055
109	0xbf0938cc	-0.5360229
110	0xbe77687e	-0.24160954
111	0xbe8f59e1	-0.2799826
112	0xbe171ee6	-0.1475788
113	0xbeb2cae4	-0.34920418
114	0xbd93a4bf	-0.07209157
115	0xbe8921f2	-0.2678371
116	0xbe4e9e4a	-0.2017757
117	0xbe0bafb7	-0.13641249
118	0xbe659f8d	-0.22424145
119	0xbed091d3	-0.40736255
120	0xbdf1650a	-0.1178685
121	0x3e43bc09	0.19114698
122	0x3e488e8d	0.19585629
123	0xbee146e7	-0.43999407
124	0xbe36df15	-0.17858537
125	0xbf0fe8e7	-0.56214756
126	0xbe807e3c	-0.2509631
127	0x3e199eb2	0.15001944

net.2.weight f4 [128, 128]
0	0xbeca575b	-0.39519772
1	0x3f10df83	0.5659105
2	0x3dabd184	0.08389571
3	0x3eb092cc	0.34486997
4	0x3e5e000a	0.21679702
5	0xbe13dce7	-0.14439736
6	0xbe8b75aa	-0.27238208
7	0xbf9e14b5	-1.2350069
8	0x3e78476e	0.24245998
9	0x3e437ac0	0.19089794
10	0x3ee406ad	0.44536343
11	0x3ca1d1a8	0.019753292
12	0x3e135750	0.14388776
13	0x3f53d26f	0.8274297
14	0x3ccd7c29	0.025083618
15	0x3e790482	0.24318126
16	0xbeac3cb6	-0.3364007
17	0xbecee9d8	-0.40412784
18	0x3f06c75b	0.5264794
19	0x3f16e004	0.5893557
20	0x3dd57bb9	0.10423989
21	0xbf25467c	-0.64560676
22	0x3e4b424a	0.19849506
23	0x3e4f9836	0.20272908
24	0x3f0f502a	0.55981696
25	0xbe2a7ab1	-0.16648366
26	0x3ce60bab	0.028081736
27	0xbda96426	-0.08271055
28	0xba0e60e1	-0.0005431306
29	0xbec44d8a	-0.38340408
30	0x3dcfd415	0.10147873
31	0x3f13ced3	0.57737464
32	0x3f3e4e7c	0.7433851
33	0xbf000a33	-0.5001556
34	0x3efc08af	0.49225375
35	0x3daaf3f4	0.083473116
36	0x3ebc950c	0.36832464
37	0x3daaa2a0	0.083317995
38	0x3cc0384b	0.023464343
39	0x3ea45ba0	0.32101154
40	0x3ebe9f4c	0.3723091
41	0x3eeba7a5	0.4602634
42	0xbf194d24	-0.5988333
43	0xbef789b7	-0.48347256
44	0xbe791f7c	-0.24328417
45	0x3f741a40	0.95352554
46	0x3e44127f	0.1914768
47	0xbec9ff08	-0.39452386
48	0xbf6a4720	-0.9151478
49	0xbd9bac8e	-0.076012716
50	0x3de3a9de	0.11116384
51	0x3e54dc0e	0.20787069
52	0xbe2024bf	-0.15639018
53	0xbe93418e	-0.28760952
54	0xbe71f977	-0.2363032
55	0xbe8e1f62	-0.27758318
56	0xbea7f8b7	-0.32806942
57	0x3eb48438	0.35257125
58	0x3eafd452	0.34341675
59	0xbf79a12c	-0.97511554
60	0x3eafd477	0.34341785
61	0xbe813943	-0.25239
62	0x3e2d8295	0.16944344
63	0xbd790fd8	-0.060806125
64	0x3dfac807	0.122451834
65	0xbd00cfb3	-0.031448077
66	0xbee33978	-0.44379783
67	0xbdb09c05	-0.08623508
68	0x3f536c2d	0.8258694
69	0xbcd300e2	-0.025757257
70	0xbede5ab2	-0.4342857
71	0x3eeb47d0	0.45953226
72	0xbc8f7062	-0.017509643
73	0x3f5521bb	0.83254594
74	0x3d2df40a	0.042469062
75	0x3ebe4c31	0.37167504
76	0xbee58922	-0.44831187
77	0xbed538cb	-0.41644892
78	0xbd335070	-0.043777883
79	0xbe60210b	-0.21887605
80	0xbf0e2bb9	-0.55535465
81	0xbeac7b59	-0.33687857
82	0x3ba27530	0.0049578175
83	0x3e824260	0.25441265
84	0x3efe4513	0.49662074
85	0x3ea40073	0.32031593
86	0x3e846479	0.25857905
87	0xbf0d87c0	-0.55285263
88	0xbe19faf6	-0.1503714
89	0xbf270cc7	-0.6525387
90	0xbd398150	-0.045289338
91	0x3e89bf31	0.2690368
92	0xbd5d6015	-0.05404671
93	0x3e80d4d4	0.25162375
94	0xbecc6262	-0.3991881
95	0xbef8a79b	-0.48565373
96	0x3eb2122a	0.34779483
97	0xbe1a3cfc	-0.15062326
98	0x3efec468	0.4975922
99	0x3f4d5f9a	0.80224
100	0xbec25020	-0.37951756
101	0xbe551feb	-0.20812957
102	0xbe5c33cf	-0.21504138
103	0x3df9e002	0.12200929
104	0xbddef4f2	-0.10886563
105	0x3d5527b5	0.05203982
106	0xbe4d9b0b	-0.20078675
107	0xbf2227d9	-0.6334205
108	0x3e29b1ac	0.16571683
109	0xbee7046f	-0.4512057
110	0xbc86b86d	-0.016445363
111	0x3ecf74a4	0.40518677
112	0xbefbda81	-0.49190143
113	0xbf273917	-0.6532149
114	0x3d96af4c	0.07357654
115	0xbf1e9f10	-0.6196146
116	0xbf2651fe	-0.6496886
117	0x3e170862	0.14749292
118	0x3dce952c	0.10087046
119	0xbf4a4597	-0.79012436
120	0x3db45f19	0.08807201
121	0xbe84e6bd	-0.2595729
122	0x3d606edd	0.054793227
123	0xbef2fc77	-0.4745824
124	0xbdf7d96d	-0.121020176
125	0xbe39c1a0	-0.18140268
126	0x3ef332e0	0.47499752
127	0x3f53d801	0.8275147
128	0x3cb6f250	0.02233234
129	0x3f381b2d	0.71916467
130	0xbf38ab2f	-0.72136205
131	0x3e74eede	0.23919246
132	0x3e68f5a1	0.2274995
133	0xbf0d7648	-0.5525861
134	0xbed87521	-0.42276862
135	0xbe921ca5	-0.2853748
136	0x3eb051f9	0.3443754
137	0xbf3e6547	-0.74373287
138	0xbf419106	-0.75611913
139	0xbe121d84	-0.14269072
140	0xbca95a86	-0.020673048
141	0x3c9c821f	0.019105015
142	0xbe880101	-0.26563266
143	0xbeaedf53	-0.34154758
144	0xbf05e837	-0.52307457
145	0x3e21eac2	0.15812209
146	0x3f3e05fc	0.7422788
147	0x3c82e088	0.015976205
148	0x3e62dbd4	0.2215417
149	0xbf59e989	-0.8512197
150	0x3e2c0678	0.16799343
151	0xbf169940	-0.5882759
152	0xbe499044	-0.19683939
153	0xbc318942	-0.0108359475
154	0xbf0ede53	-0.5580799
155	0x3f14e46f	0.5816106
156	0xbefdd8e7	-0.49579546
157	0xbf4de3cc	-0.80425715
158	0x3ea3f29e	0.3202104
159	0x3d3b98a2	0.04579986
160	0x3e522402	0.20521548
161	0xbf004393	-0.5010311
162	0xbe8a181c	-0.2697152
163	0xbca621c4	-0.020279773
164	0xbf6945cb	-0.9112212
165	0x3e1f31f2	0.15546396
166	0xbf104d02	-0.56367505
167	0xbe99719d	-0.29969493
168	0x3ed6f818	0.41986156
169	0xbd392987	-0.04520562
170	0xbec330e2	-0.38123232
171	0xbfb8fd01	-1.4452211
172	0xbea4cb9f	-0.321866
173	0x3e18d0d1	0.14923407
174	0x3e1f592c	0.1556136
175	0x3ea457f0	0.3209834
176	0xbefc3105	-0.4925615
177	0xbefba81c	-0.49151695
178	0x3e851542	0.2599278
179	0xbe6f14b9	-0.23347749
180	0x3ea34b11	0.3189321
181	0x3ebb25e1	0.36552337
182	0x3f10f4cf	0.5662355
183	0xbf005540	-0.5013008
184	0xbea5b653	-0.32365665
185	0xbe8965f4	-0.26835597
186	0xbe827b29	-0.2548459
187	0x3f60bb09	0.87785393
188	0x3e06bfa6	0.13159046
189	0x3f062c03	0.52410907
190	0xbe289e58	-0.16466653
191	0xbeefc05b	-0.46826443
192	0xbf203bee	-0.62591445
193	0xbf144830	-0.5792265
194	0xbf94807d	-1.1601712
195	0x3f09b09b	0.53785104
196	0x3e2f03f6	0.17091355
197	0xbf017a01	-0.5057679
198	0x3bbedc8d	0.0058246315
199	0xbeb7c32a	-0.35891086
200	0xbed8428e	-0.42238277
201	0xbd9c1989	-0.07622058
202	0xbe8fe2ee	-0.2810282
203	0x3eb7d3b8	0.35903716
204	0xbf2ec769	-0.68273026
205	0xbe07f723	-0.13277869
206	0x3e5eae66	0.21746215
207	0xbf2c0106	-0.6718906
208	0x3d20d23f	0.039263006
209	0xbea84e61	-0.32872298
210	0xbd8ad06b	-0.06778034
211	0xbc672bb4	-0.014109541
212	0xbf82ab3c	-1.0208507
213	0xbeeba742	-0.46026045
214	0xbe6b253c	-0.22963423
215	0xbf8d0900	-1.1018372
216	0xbfa5799d	-1.2927738
217	0xbf7c4418	-0.985414
218	0xbf0e068f	-0.5547876
219	0x3d9b05f6	0.07569496
220	0x3ef4da3c	0.4782275
221	0x3f2e3982	0.680565
222	0xbe29ad7f	-0.1657009
223	0x3e863d82	0.26218802
224	0xbf0ae962	-0.54262364
225	0xbe08a538	-0.13344276
226	0x3ea8c394	0.32961714
227	0x3ef837b6	0.48480004
228	0x3e883a44	0.26606953
229	0xbe4a2091	-0.19738986
230	0x3e3a4f6b	0.18194358
231	0x3e8c756b	0.27433333
232	0x3e9a167d	0.30095282
233	0xbe6928f3	-0.22769527
234	0x3edf5f14	0.43627226
235	0xbee9b8ae	-0.45648712
236	0xbd1c8f9f	-0.038222905
237	0xbf618916	-0.880998
238	0xbf3fcf5e	-0.7492579
239	0x3b52b63b	0.0032152075
240	0x3d386108	0.04501441
241	0x3f018bbb	0.50603837
242	0x3f0b3e8b	0.5439231
243	0xbd982860	-0.07429576
244	0x3f22590f	0.6341714
245	0x3e235a36	0.15952381
246	0xbe2a8fb3	-0.1665638
247	0xbe88579f	-0.2662935
248	0xbecbb1d1	-0.397841
249	0xbe811924	-0.25214493
250	0xbe6bda87	-0.2303258
251	0xbe9c66dd	-0.30547228
252	0xbf5b84ba	-0.857494
253	0x3e436ff0	0.1908567
254	0xbbf8de12	-0.007594832
255	0xbef3680c	-0.4754032

net.2.bias f4 [128]
0	0xbe58381a	-0.21115151
1	0xbd548b6d	-0.05189078
2	0xbd92d0f9	-0.071687646
3	0x3e8bd51e	0.27311033
4	0xbde3baf0	-0.1111964
5	0xbefe624c	-0.4968437
6	0xbd8a20ac	-0.06744513
7	0x3e0896fd	0.13338847
8	0xbe972320	-0.29518986
9	0x3e53df1a	0.20690575
10	0xbee4477b	-0.44585785
11	0xbe0770c9	-0.13226618
12	0x3e42730c	0.189892
13	0x3e98356c	0.29728258
14	0xbb62e232	-0.0034619686
15	0x3d8a971e	0.067671046
16	0x3de8727d	0.11349962
17	0xbe34ec50	-0.17668271
18	0xbcb5c41a	-0.022188235
19	0x3d2715d0	0.040792286
20	0x3d4a77c7	0.049430635
21	0xbe2b198d	-0.16708966
22	0xbe5ab40a	-0.21357742
23	0xbeddc567	-0.4331467
24	0xbda59cf7	-0.08086579
25	0xbda2f8b6	-0.07957594
26	0xbea2aebc	-0.31773937
27	0x3e440656	0.19143042
28	0xbdf19866	-0.11796646
29	0xbdf144a6	-0.11780672
30	0xbdeba918	-0.115068614
31	0xbd946210	-0.072452664
32	0x3e5ff326	0.21870098
33	0xbbf17450	-0.007368602
34	0x3e0bab16	0.13639483
35	0x3f0a2c11	0.5397349
36	0xbde5db6f	-0.11223494
37	0x3f4440f1	0.7666159
38	0xbedb9df0	-0.42893934
39	0x3f6d73eb	0.92755
40	0xbda25d5a	-0.07927962
41	0xbe8ec668	-0.27885747
42	0xbe9e2a0f	-0.30891463
43	0xbd9ed3db	-0.07755252
44	0x3edff226	0.43739432
45	0xbe97377e	-0.29534525
46	0xbdc3a041	-0.095520504
47	0xbed20c79	-0.4102514
48	0xbd645fdd	-0.055755485
49	0xbd8ed071	-0.06973351
50	0xbe23f663	-0.16011958
51	0xbd854688	-0.065075934
52	0xbe96f2a9	-0.2948201
53	0xbe069750	-0.13143659
54	0xbdcb976c	-0.09940991
55	0xbdc7c134	-0.097536474
56	0x3e92cb47	0.28670713
57	0xbdc52a7f	-0.09627246
58	0xbdb120ab	-0.08648809
59	0xbdd19664	-0.10233763
60	0xbd3c550b	-0.04597954
61	0xbdb040c6	-0.086061046
62	0x3db4e8c0	0.08833456
63	0xbd7bb0ad	-0.061447788
64	0xbda02ba8	-0.07820827
65	0xbf0d1790	-0.5511408
66	0xbdfb5c27	-0.12273436
67	0xbe925600	-0.28581238
68	0xbe94cfd8	-0.29064822
69	0xbe4bb9d3	-0.19895105
70	0xbec3193f	-0.381052
71	0xbebe1332	-0.3712402
72	0x3cb35d4a	0.02189507
73	0xbe0789f1	-0.13236214
74	0xbee2aec7	-0.4427397
75	0xbd05e39e	-0.032687776
76	0xbd8403db	-0.06446048
77	0xbd60fa71	-0.05492634
78	0xbdbda433	-0.09259834
79	0x3e92af5c	0.28649414
80	0xbcbbf72a	-0.022945005
81	0xbb899c11	-0.004199513
82	0xbe2b0a55	-0.1670316
83	0xbe3a810f	-0.18213294
84	0xbde034bf	-0.109475605
85	0x3ad00cbc	0.0015872936
86	0xbd416b52	-0.04722149
87	0x3f5e0509	0.86726433
88	0x3c4dbbca	0.012556979
89	0xbee4c82a	-0.44683963
90	0x3dddf46a	0.10837634
91	0x3e8d07d9	0.2754505
92	0xbdb5692b	-0.0885795
93	0xbe912e7a	-0.2835577
94	0xbee02e3a	-0.43785268
95	0xbe9a9fd3	-0.3020006
96	0x3e25643a	0.16151515
97	0x3c5ce89e	0.013483195
98	0xbcd54f90	-0.026038915
99	0x3e0d41cd	0.13794632
100	0xbd0df922	-0.03466142
101	0x3e89ff51	0.26952603
102	0xbe98c11f	-0.2983484
103	0xbdfba2eb	-0.122869335
104	0x3ca6af96	0.020347398
105	0x3da8fc88	0.082512915
106	0xbe8d046c	-0.27542436
107	0x3c21bc3c	0.009871539
108	0xbdc4e813	-0.09614577
109	0x3dcefd4c	0.10106906
110	0x3d835eab	0.06414541
111	0xbdc218ae	-0.094773635
112	0x3c16311f	0.009166985
113	0xbc6da68f	-0.014505043
114	0x3deab010	0.114593625
115	0xbe8709b4	-0.2637459
116	0x3917ea9c	0.00014487881
117	0xbd8fd077	-0.070221834
118	0xbdca9720	-0.09892106
119	0xbcb2865a	-0.02179258
120	0xbdfc5818	-0.1232149
121	0xbdb88625	-0.09009961
122	0xbdb67fb8	-0.08911079
123	0xbdf7d9d3	-0.121020935
124	0xbea30c44	-0.31845295
125	0xbe0964d8	-0.13417375
126	0xbc6679e6	-0.014067149
127	0x3e7856de	0.24251887

net.4.weight f4 [4, 128]
0	0x3e884b07	0.2661974
1	0xbf18f48f	-0.59748167
2	0xbb9ae318	-0.0047267787
3	0x3dc8b9a4	0.09801033
4	0x3cc679b6	0.024227958
5	0x3dfb8a0d	0.122821905
6	0xb9b00eeb	-0.0003358045
7	0xbf3aa3dd	-0.72906286
8	0x3ea05afe	0.31319422
9	0xbed929da	-0.42414743
10	0x3e8f4456	0.27981824
11	0xbe9902d0	-0.29884958
12	0x3d658b30	0.056040943
13	0xbd36c2cf	-0.044619378
14	0xbc874007	-0.016510023
15	0xbd8b33d5	-0.067969956
16	0xbec0fa60	-0.3769102
17	0xbd9f3fa8	-0.07775813
18	0xbdaa825b	-0.083256446
19	0x3eaa08d1	0.3320985
20	0xbc4feb09	-0.012690314
21	0x3eb2dfa0	0.34936237
22	0x3f19a5d6	0.6001867
23	0x3e501fa4	0.2032457
24	0xbc5760de	-0.0131456535
25	0x3c816730	0.015796274
26	0x3e9508fe	0.29108423
27	0xbe6bec32	-0.2303932
28	0xbd343498	-0.04399547
29	0x3daad48e	0.08341323
30	0x3c727ef5	0.014800777
31	0xbdfd0ee6	-0.12356357
32	0xbe35c709	-0.17751707
33	0xbd87ae6b	-0.066250645
34	0x3e99f088	0.30066323
35	0x3e38ce26	0.1804739
36	0xbf46c445	-0.77643234
37	0x3f1ce870	0.6129217
38	0x3e9ab652	0.30217224
39	0x3f001c46	0.5004314
40	0xbd51b2e1	-0.051195983
41	0xbe39215c	-0.18079132
42	0xbdfaac16	-0.12239854
43	0xb90ecf2a	-0.0001361935
44	0x3e4d8a56	0.20072302
45	0x3e929915	0.28632417
46	0x3d361741	0.04445577
47	0xbee5b004	-0.44860852
48	0xbd298b54	-0.04139264
49	0xbd5a30cd	-0.053269196
50	0x3cd46b5c	0.0259301
51	0x3e441edf	0.19152401
52	0x3f101536	0.56282365
53	0xbe278728	-0.16360152
54	0xbd3e3b67	-0.04644337
55	0xbf29a2d4	-0.6626408
56	0x3e048414	0.12941009
57	0x3d8aade3	0.067714475
58	0x3cb62441	0.022234084
59	0xbc5b132e	-0.013371272
60	0xbea02930	-0.31281424
61	0x3d6b27d5	0.057411034
62	0xbe8dbb44	-0.27681935
63	0x3d1d630d	0.03842454
64	0x3cc4152b	0.023935875
65	0x3e0bad83	0.13640408
66	0x3cf07974	0.029354788
67	0xbcb73a83	-0.022366768
68	0xbf54726b	-0.8298709
69	0xbdd8680b	-0.105667196
70	0xbeb45aa3	-0.352254
71	0x3f9f3e92	1.244097
72	0x3db70524	0.08936527
73	0x3b5e3582	0.0033906405
74	0x3df5f3c1	0.12009383
75	0xbd18fc58	-0.03735003
76	0x3e2d9659	0.16951884
77	0xbc87e6e2	-0.016589586
78	0xbc437fdc	-0.0119323395
79	0x3e221756	0.15829214
80	0x3c3ea523	0.011636051
81	0xbbc4ed61	-0.006009743
82	0x3d96d523	0.07364871
83	0xbf37ba6c	-0.7176883
84	0xbd232a57	-0.0398353
85	0xbe15e1ea	-0.1463696
86	0xbd9f409f	-0.07775997
87	0x3e94b96b	0.29047713
88	0xbd2e0eec	-0.0424947
89	0xbe2f7029	-0.1713263
90	0xbec49520	-0.38395023
91	0xbf008fb1	-0.50219256
92	0x3d8606db	0.06544276
93	0x3e953711	0.29143575
94	0x3f6b13f7	0.9182734
95	0x3f971364	1.1802793
96	0x3e86f5ef	0.26359507
97	0x3d7ebef2	0.06219382
98	0x3c33a2be	0.010964094
99	0xbf0ee45e	-0.5581721
100	0x3ec7827b	0.38966736
101	0xbf9d5fff	-1.2294921
102	0xbe148a64	-0.14505917
103	0x3e0315d6	0.12801298
104	0x3d60e506	0.054905914
105	0x3de71e6f	0.112851016
106	0xbf1c897d	-0.6114729
107	0xbfb4c15a	-1.4121506
108	0x3e4df965	0.20114668
109	0xbf16457c	-0.58699775
110	0xbe6a2a80	-0.22867775
111	0x3d41e4d9	0.047337387
112	0xbcec09df	-0.0288133
113	0xbd364f51	-0.044509236
114	0xbefd427b	-0.49464783
115	0x3f690e7e	0.9103774
116	0x3dee03d3	0.11621823
117	0xbd137d55	-0.036008198
118	0x3c65c0a2	0.014022978
119	0x3eb56070	0.35425138
120	0xbeb30140	-0.3496189
121	0x3d9742b7	0.07385772
122	0xbd309e67	-0.043119814
123	0x3d5955f9	0.053060506
124	0x3c947410	0.01812175
125	0xbc81bb60	-0.015836418
126	0x3c4033a2	0.01173106
127	0xbea665f0	-0.32499647
128	0x3ed5e0b1	0.41772988
129	0xbf4aa810	-0.79162693
130	0xbc085f6b	-0.008323531
131	0xbf7879b0	-0.9706068
132	0x3ddf9e30	0.10918844
133	0x3ed1edf3	0.41001853
134	0x3d4aa5d8	0.049474567
135	0xbc3ca8f4	-0.011514891
136	0x3e01a75b	0.12661497
137	0xbd8ba70d	-0.06818972
138	0x3e277643	0.16353707
139	0xbe72cd85	-0.23711212
140	0xbc006b6e	-0.007838113
141	0x3c3c15e6	0.01147983
142	0xbd0e397f	-0.0347228
143	0xbdcb5ff4	-0.09930411
144	0xbacf5008	-0.0015816698
145	0x3ec3178d	0.38103905
146	0xbcffd59c	-0.031229787
147	0xbeb71c0b	-0.35763583
148	0xbf324e02	-0.6965028
149	0xbf56958c	-0.8382194
150	0x3f102315	0.5630353
151	0x3ebbc4e1	0.36673644
152	0xbcdf5a0d	-0.02726462
153	0xbd08365e	-0.033254974
154	0x3de4f886	0.111802146
155	0xbf91949d	-1.1373478
156	0x3e77bbc8	0.24192727
157	0x3ecdd2a6	0.40199775
158	0x3dad9706	0.08476071
159	0xbdc0d31c	-0.09415266
160	0xbeb22c84	-0.34799588
161	0xbba76fe1	-0.0051097726
162	0xbfc16b83	-1.5110935
163	0x3e4066ab	0.18789165
164	0xbf1e11a6	-0.6174568
165	0x3ee16a98	0.44026637
166	0x3ea80b4d	0.32821122
167	0x3f0f6b85	0.56023437
168	0x3cb2d42b	0.021829685
169	0xbe91aeff	-0.28453824
170	0xbf76ee30	-0.96457195
171	0x3df832f3	0.12119093
172	0x3e204451	0.1565106
173	0xbe43dadd	-0.19126458
174	0x3d8ac3cb	0.06775626
175	0x3eae9346	0.34096736
176	0xbd3d1dba	-0.046170928
177	0x3d19fd74	0.037595227
178	0x3d58c376	0.05292078
179	0x3f061411	0.5237437
180	0xbe7fa5f9	-0.24965657
181	0x3f1030de	0.56324565
182	0x3d70da31	0.058801834
183	0x3d191da4	0.037381783
184	0xbecb994b	-0.3976539
185	0x3d959707	0.07304197
186	0x3d8a17eb	0.06742843
187	0x3cd8b903	0.026455408
188	0xbe1b453c	-0.1516313
189	0x3da17294	0.07883182
190	0x3ceeb28a	0.029137868
191	0x3d729367	0.059222605
192	0x3d5982d5	0.053103287
193	0xbecb22d6	-0.39675015
194	0x3db6d1ad	0.08926711
195	0x3ec784c0	0.38968468
196	0xbea4e00c	-0.32202184
197	0xbbb62101	-0.0055581336
198	0x3eb38b6c	0.35067308
199	0x3f04c467	0.51862186
200	0xbad222d7	-0.0016032112
201	0x3d883278	0.06650251
202	0x3ea32663	0.31865224
203	0x3d50ba68	0.05095902
204	0xbe2b24ce	-0.16713259
205	0x3cfb4b46	0.030675542
206	0xbe5d2282	-0.21595195
207	0x3de74be4	0.11293772
208	0x3d0dbbb2	0.03460283
209	0x3afa1c65	0.0019081949
210	0xbfaa8154	-1.3320718
211	0xbdddc146	-0.108278796
212	0x3cfcc236	0.030854326
213	0xbe4e19d2	-0.20127037
214	0xbd52cb6b	-0.051463526
215	0x3ec6b679	0.3881109
216	0xbd211edf	-0.03933608
217	0x3ee4c0a7	0.44678232
218	0x3e807369	0.2508805
219	0x3d38c2fb	0.045107823
220	0x3c70555b	0.014668788
221	0xbe2c98c2	-0.16855147
222	0x3d329fd9	0.043609474
223	0xbf1819fc	-0.5941465
224	0x3c11edc5	0.008906786
225	0xbb3b4474	-0.0028574737
226	0x3c54d647	0.012990541
227	0x3e6c2c2d	0.23063727
228	0x3f06bd36	0.5263246
229	0xbf6659f8	-0.8998103
230	0x3f8f586d	1.119886
231	0x3f6f7719	0.93541104
232	0x3ca54dc0	0.020178676
233	0x3d52249e	0.051304452
234	0xbf1c9db3	-0.6117813
235	0x3d2ec0a2	0.042664178
236	0xbe32f758	-0.17477167
237	0xbebe5ce7	-0.37180254
238	0xbf1059ba	-0.5638691
239	0xbca976c2	-0.020686511
240	0xbd27c1b9	-0.040956233
241	0x3d367c35	0.044552047
242	0x3f68d95b	0.9095666
243	0xbeb12656	-0.3459956
244	0xbc44a645	-0.012002532
245	0x3d5f98d3	0.054589104
246	0x3daebe3e	0.085323796
247	0x3e99da40	0.30049324
248	0x3e2fd1df	0.17169903
249	0x3dc2bafb	0.0950832
250	0xbd0a317a	-0.03373859
251	0xbd20f557	-0.039296474
252	0x3d06631c	0.03280936
253	0x3b6bb820	0.0035967901
254	0x3d905b49	0.07048661
255	0xbf5faffe	-0.8737792

net.4.bias f4 [4]
0	0x3f235d7d	0.63814527
1	0x3f1a917a	0.6037823
2	0x3f0a5e8e	0.5405053
3	0x3ee21f29	0.44164398
